<?xml version="1.0"?>
<net name="TensorFlow_Frontend_IR" version="11">
	<layers>
		<layer id="0" name="conv1d_input" type="Parameter" version="opset1">
			<data shape="?,93,1" element_type="f32" />
			<output>
				<port id="0" precision="FP32" names="conv1d_input">
					<dim>-1</dim>
					<dim>93</dim>
					<dim>1</dim>
				</port>
			</output>
		</layer>
		<layer id="1" name="Constant_275" type="Const" version="opset1">
			<data element_type="i32" shape="" offset="0" size="4" />
			<output>
				<port id="0" precision="I32" />
			</output>
		</layer>
		<layer id="2" name="time" type="Const" version="opset1">
			<data element_type="i32" shape="" offset="4" size="4" />
			<output>
				<port id="0" precision="I32" />
			</output>
		</layer>
		<layer id="3" name="Constant_1266" type="Const" version="opset1">
			<data element_type="i64" shape="3" offset="8" size="24" />
			<output>
				<port id="0" precision="I64">
					<dim>3</dim>
				</port>
			</output>
		</layer>
		<layer id="4" name="Transpose_1267" type="Transpose" version="opset1">
			<input>
				<port id="0" precision="FP32">
					<dim>-1</dim>
					<dim>93</dim>
					<dim>1</dim>
				</port>
				<port id="1" precision="I64">
					<dim>3</dim>
				</port>
			</input>
			<output>
				<port id="2" precision="FP32">
					<dim>-1</dim>
					<dim>1</dim>
					<dim>93</dim>
				</port>
			</output>
		</layer>
		<layer id="5" name="Constant_1268" type="Const" version="opset1">
			<data element_type="i32" shape="1" offset="32" size="4" />
			<output>
				<port id="0" precision="I32">
					<dim>1</dim>
				</port>
			</output>
		</layer>
		<layer id="6" name="Transpose_42" type="Unsqueeze" version="opset1">
			<input>
				<port id="0" precision="FP32">
					<dim>-1</dim>
					<dim>1</dim>
					<dim>93</dim>
				</port>
				<port id="1" precision="I32">
					<dim>1</dim>
				</port>
			</input>
			<output>
				<port id="2" precision="FP32" names="sequential/conv1d/Conv1D/ExpandDims:0">
					<dim>-1</dim>
					<dim>1</dim>
					<dim>1</dim>
					<dim>93</dim>
				</port>
			</output>
		</layer>
		<layer id="7" name="Transpose_44_compressed" type="Const" version="opset1">
			<data element_type="f16" shape="64, 1, 1, 3" offset="36" size="384" />
			<output>
				<port id="0" precision="FP16">
					<dim>64</dim>
					<dim>1</dim>
					<dim>1</dim>
					<dim>3</dim>
				</port>
			</output>
		</layer>
		<layer id="8" name="Transpose_44" type="Convert" version="opset1">
			<data destination_type="f32" />
			<rt_info>
				<attribute name="decompression" version="0" />
			</rt_info>
			<input>
				<port id="0" precision="FP16">
					<dim>64</dim>
					<dim>1</dim>
					<dim>1</dim>
					<dim>3</dim>
				</port>
			</input>
			<output>
				<port id="1" precision="FP32">
					<dim>64</dim>
					<dim>1</dim>
					<dim>1</dim>
					<dim>3</dim>
				</port>
			</output>
		</layer>
		<layer id="9" name="Convolution_45" type="Convolution" version="opset1">
			<data strides="1, 1" dilations="1, 1" pads_begin="0, 0" pads_end="0, 0" auto_pad="valid" />
			<input>
				<port id="0" precision="FP32">
					<dim>-1</dim>
					<dim>1</dim>
					<dim>1</dim>
					<dim>93</dim>
				</port>
				<port id="1" precision="FP32">
					<dim>64</dim>
					<dim>1</dim>
					<dim>1</dim>
					<dim>3</dim>
				</port>
			</input>
			<output>
				<port id="2" precision="FP32">
					<dim>-1</dim>
					<dim>64</dim>
					<dim>1</dim>
					<dim>91</dim>
				</port>
			</output>
		</layer>
		<layer id="10" name="Constant_1074" type="Const" version="opset1">
			<data element_type="i32" shape="1" offset="32" size="4" />
			<output>
				<port id="0" precision="I32">
					<dim>1</dim>
				</port>
			</output>
		</layer>
		<layer id="11" name="Transpose_1076" type="Squeeze" version="opset1">
			<input>
				<port id="0" precision="FP32">
					<dim>-1</dim>
					<dim>64</dim>
					<dim>1</dim>
					<dim>91</dim>
				</port>
				<port id="1" precision="I32">
					<dim>1</dim>
				</port>
			</input>
			<output>
				<port id="2" precision="FP32">
					<dim>-1</dim>
					<dim>64</dim>
					<dim>91</dim>
				</port>
			</output>
		</layer>
		<layer id="12" name="Transpose_1080_compressed" type="Const" version="opset1">
			<data element_type="f16" shape="1, 64, 1" offset="420" size="128" />
			<output>
				<port id="0" precision="FP16">
					<dim>1</dim>
					<dim>64</dim>
					<dim>1</dim>
				</port>
			</output>
		</layer>
		<layer id="13" name="Transpose_1080" type="Convert" version="opset1">
			<data destination_type="f32" />
			<rt_info>
				<attribute name="decompression" version="0" />
			</rt_info>
			<input>
				<port id="0" precision="FP16">
					<dim>1</dim>
					<dim>64</dim>
					<dim>1</dim>
				</port>
			</input>
			<output>
				<port id="1" precision="FP32">
					<dim>1</dim>
					<dim>64</dim>
					<dim>1</dim>
				</port>
			</output>
		</layer>
		<layer id="14" name="Transpose_1082" type="Add" version="opset1">
			<data auto_broadcast="numpy" />
			<input>
				<port id="0" precision="FP32">
					<dim>-1</dim>
					<dim>64</dim>
					<dim>91</dim>
				</port>
				<port id="1" precision="FP32">
					<dim>1</dim>
					<dim>64</dim>
					<dim>1</dim>
				</port>
			</input>
			<output>
				<port id="2" precision="FP32">
					<dim>-1</dim>
					<dim>64</dim>
					<dim>91</dim>
				</port>
			</output>
		</layer>
		<layer id="15" name="Transpose_1084" type="ReLU" version="opset1">
			<input>
				<port id="0" precision="FP32">
					<dim>-1</dim>
					<dim>64</dim>
					<dim>91</dim>
				</port>
			</input>
			<output>
				<port id="1" precision="FP32">
					<dim>-1</dim>
					<dim>64</dim>
					<dim>91</dim>
				</port>
			</output>
		</layer>
		<layer id="16" name="Constant_1083" type="Const" version="opset1">
			<data element_type="i64" shape="3" offset="8" size="24" />
			<rt_info>
				<attribute name="precise" version="0" />
			</rt_info>
			<output>
				<port id="0" precision="I64">
					<dim>3</dim>
				</port>
			</output>
		</layer>
		<layer id="17" name="sequential/conv1d/Relu" type="Transpose" version="opset1">
			<input>
				<port id="0" precision="FP32">
					<dim>-1</dim>
					<dim>64</dim>
					<dim>91</dim>
				</port>
				<port id="1" precision="I64">
					<dim>3</dim>
				</port>
			</input>
			<output>
				<port id="2" precision="FP32" names="sequential/conv1d/Relu:0">
					<dim>-1</dim>
					<dim>91</dim>
					<dim>64</dim>
				</port>
			</output>
		</layer>
		<layer id="18" name="Gather_1086" type="ShapeOf" version="opset3">
			<data output_type="i32" />
			<input>
				<port id="0" precision="FP32">
					<dim>-1</dim>
					<dim>91</dim>
					<dim>64</dim>
				</port>
			</input>
			<output>
				<port id="1" precision="I32">
					<dim>3</dim>
				</port>
			</output>
		</layer>
		<layer id="19" name="transpose/perm" type="Const" version="opset1">
			<data element_type="i32" shape="3" offset="548" size="12" />
			<output>
				<port id="0" precision="I32">
					<dim>3</dim>
				</port>
			</output>
		</layer>
		<layer id="20" name="Constant_1085" type="Const" version="opset1">
			<data element_type="i32" shape="" offset="4" size="4" />
			<output>
				<port id="0" precision="I32" />
			</output>
		</layer>
		<layer id="21" name="Shape" type="Gather" version="opset8">
			<data batch_dims="0" />
			<input>
				<port id="0" precision="I32">
					<dim>3</dim>
				</port>
				<port id="1" precision="I32">
					<dim>3</dim>
				</port>
				<port id="2" precision="I32" />
			</input>
			<output>
				<port id="3" precision="I32">
					<dim>3</dim>
				</port>
			</output>
		</layer>
		<layer id="22" name="strided_slice/stack" type="Const" version="opset1">
			<data element_type="i32" shape="1" offset="4" size="4" />
			<rt_info>
				<attribute name="precise" version="0" />
			</rt_info>
			<output>
				<port id="0" precision="I32">
					<dim>1</dim>
				</port>
			</output>
		</layer>
		<layer id="23" name="strided_slice/stack_1" type="Const" version="opset1">
			<data element_type="i32" shape="1" offset="560" size="4" />
			<rt_info>
				<attribute name="precise" version="0" />
			</rt_info>
			<output>
				<port id="0" precision="I32">
					<dim>1</dim>
				</port>
			</output>
		</layer>
		<layer id="24" name="strided_slice/stack_2" type="Const" version="opset1">
			<data element_type="i32" shape="1" offset="560" size="4" />
			<rt_info>
				<attribute name="precise" version="0" />
			</rt_info>
			<output>
				<port id="0" precision="I32">
					<dim>1</dim>
				</port>
			</output>
		</layer>
		<layer id="25" name="strided_slice" type="StridedSlice" version="opset1">
			<data begin_mask="0" end_mask="0" new_axis_mask="0" shrink_axis_mask="1" ellipsis_mask="0" />
			<input>
				<port id="0" precision="I32">
					<dim>3</dim>
				</port>
				<port id="1" precision="I32">
					<dim>1</dim>
				</port>
				<port id="2" precision="I32">
					<dim>1</dim>
				</port>
				<port id="3" precision="I32">
					<dim>1</dim>
				</port>
			</input>
			<output>
				<port id="4" precision="I32" />
			</output>
		</layer>
		<layer id="26" name="while/Less" type="Less" version="opset1">
			<data auto_broadcast="numpy" />
			<input>
				<port id="0" precision="I32" />
				<port id="1" precision="I32" />
			</input>
			<output>
				<port id="2" precision="BOOL" />
			</output>
		</layer>
		<layer id="27" name="while/loop_counter" type="Const" version="opset1">
			<data element_type="i32" shape="" offset="4" size="4" />
			<output>
				<port id="0" precision="I32" />
			</output>
		</layer>
		<layer id="28" name="while/maximum_iterations" type="Const" version="opset1">
			<data element_type="i32" shape="" offset="0" size="4" />
			<output>
				<port id="0" precision="I32" />
			</output>
		</layer>
		<layer id="29" name="TensorArrayV2_1" type="Const" version="opset1">
			<data element_type="f32" shape="0, 0" offset="564" size="1" />
			<output>
				<port id="0" precision="FP32">
					<dim>0</dim>
					<dim>0</dim>
				</port>
			</output>
		</layer>
		<layer id="30" name="sequential/lstm/zeros_1/Const_compressed" type="Const" version="opset1">
			<data element_type="f16" shape="" offset="565" size="2" />
			<output>
				<port id="0" precision="FP16" />
			</output>
		</layer>
		<layer id="31" name="sequential/lstm/zeros_1/Const" type="Convert" version="opset1">
			<data destination_type="f32" />
			<rt_info>
				<attribute name="decompression" version="0" />
			</rt_info>
			<input>
				<port id="0" precision="FP16" />
			</input>
			<output>
				<port id="1" precision="FP32" names="sequential/lstm/zeros_1/Const:0" />
			</output>
		</layer>
		<layer id="32" name="Gather_1088" type="ShapeOf" version="opset3">
			<data output_type="i32" />
			<input>
				<port id="0" precision="FP32">
					<dim>-1</dim>
					<dim>64</dim>
					<dim>91</dim>
				</port>
			</input>
			<output>
				<port id="1" precision="I32">
					<dim>3</dim>
				</port>
			</output>
		</layer>
		<layer id="33" name="Constant_1087" type="Const" version="opset1">
			<data element_type="i32" shape="" offset="4" size="4" />
			<rt_info>
				<attribute name="precise" version="0" />
			</rt_info>
			<output>
				<port id="0" precision="I32" />
			</output>
		</layer>
		<layer id="34" name="sequential/lstm/Shape" type="Gather" version="opset8">
			<data batch_dims="0" />
			<input>
				<port id="0" precision="I32">
					<dim>3</dim>
				</port>
				<port id="1" precision="I64">
					<dim>3</dim>
				</port>
				<port id="2" precision="I32" />
			</input>
			<output>
				<port id="3" precision="I32" names="sequential/lstm/Shape:0">
					<dim>3</dim>
				</port>
			</output>
		</layer>
		<layer id="35" name="sequential/lstm/strided_slice/stack" type="Const" version="opset1">
			<data element_type="i32" shape="1" offset="4" size="4" />
			<rt_info>
				<attribute name="precise" version="0" />
			</rt_info>
			<output>
				<port id="0" precision="I32" names="sequential/lstm/strided_slice/stack:0">
					<dim>1</dim>
				</port>
			</output>
		</layer>
		<layer id="36" name="sequential/lstm/strided_slice/stack_1" type="Const" version="opset1">
			<data element_type="i32" shape="1" offset="560" size="4" />
			<rt_info>
				<attribute name="precise" version="0" />
			</rt_info>
			<output>
				<port id="0" precision="I32" names="sequential/lstm/strided_slice/stack_1:0">
					<dim>1</dim>
				</port>
			</output>
		</layer>
		<layer id="37" name="sequential/lstm/strided_slice/stack_2" type="Const" version="opset1">
			<data element_type="i32" shape="1" offset="560" size="4" />
			<rt_info>
				<attribute name="precise" version="0" />
			</rt_info>
			<output>
				<port id="0" precision="I32" names="sequential/lstm/strided_slice/stack_2:0">
					<dim>1</dim>
				</port>
			</output>
		</layer>
		<layer id="38" name="sequential/lstm/strided_slice" type="StridedSlice" version="opset1">
			<data begin_mask="0" end_mask="0" new_axis_mask="0" shrink_axis_mask="1" ellipsis_mask="0" />
			<input>
				<port id="0" precision="I32">
					<dim>3</dim>
				</port>
				<port id="1" precision="I32">
					<dim>1</dim>
				</port>
				<port id="2" precision="I32">
					<dim>1</dim>
				</port>
				<port id="3" precision="I32">
					<dim>1</dim>
				</port>
			</input>
			<output>
				<port id="4" precision="I32" names="sequential/lstm/strided_slice:0" />
			</output>
		</layer>
		<layer id="39" name="Constant_54" type="Const" version="opset1">
			<data element_type="i64" shape="" offset="567" size="8" />
			<rt_info>
				<attribute name="precise" version="0" />
			</rt_info>
			<output>
				<port id="0" precision="I64" />
			</output>
		</layer>
		<layer id="40" name="Unsqueeze_55" type="Unsqueeze" version="opset1">
			<input>
				<port id="0" precision="I32" />
				<port id="1" precision="I64" />
			</input>
			<output>
				<port id="2" precision="I32">
					<dim>1</dim>
				</port>
			</output>
		</layer>
		<layer id="41" name="Unsqueeze_56" type="Const" version="opset1">
			<data element_type="i32" shape="1" offset="575" size="4" />
			<rt_info>
				<attribute name="precise" version="0" />
			</rt_info>
			<output>
				<port id="0" precision="I32">
					<dim>1</dim>
				</port>
			</output>
		</layer>
		<layer id="42" name="sequential/lstm/zeros_1/packed" type="Concat" version="opset1">
			<data axis="0" />
			<input>
				<port id="0" precision="I32">
					<dim>1</dim>
				</port>
				<port id="1" precision="I32">
					<dim>1</dim>
				</port>
			</input>
			<output>
				<port id="2" precision="I32" names="sequential/lstm/zeros/packed:0,sequential/lstm/zeros_1/packed:0">
					<dim>2</dim>
				</port>
			</output>
		</layer>
		<layer id="43" name="sequential/lstm/zeros_1" type="Broadcast" version="opset3">
			<data mode="numpy" />
			<input>
				<port id="0" precision="FP32" />
				<port id="1" precision="I32">
					<dim>2</dim>
				</port>
			</input>
			<output>
				<port id="2" precision="FP32" names="sequential/lstm/zeros:0,sequential/lstm/zeros_1:0">
					<dim>-1</dim>
					<dim>50</dim>
				</port>
			</output>
		</layer>
		<layer id="44" name="transpose" type="Transpose" version="opset1">
			<input>
				<port id="0" precision="FP32">
					<dim>-1</dim>
					<dim>91</dim>
					<dim>64</dim>
				</port>
				<port id="1" precision="I32">
					<dim>3</dim>
				</port>
			</input>
			<output>
				<port id="2" precision="FP32">
					<dim>91</dim>
					<dim>-1</dim>
					<dim>64</dim>
				</port>
			</output>
		</layer>
		<layer id="45" name="lstm/lstm_cell/kernel_compressed" type="Const" version="opset1">
			<data element_type="f16" shape="64, 200" offset="579" size="25600" />
			<output>
				<port id="0" precision="FP16">
					<dim>64</dim>
					<dim>200</dim>
				</port>
			</output>
		</layer>
		<layer id="46" name="lstm/lstm_cell/kernel" type="Convert" version="opset1">
			<data destination_type="f32" />
			<rt_info>
				<attribute name="decompression" version="0" />
			</rt_info>
			<input>
				<port id="0" precision="FP16">
					<dim>64</dim>
					<dim>200</dim>
				</port>
			</input>
			<output>
				<port id="1" precision="FP32" names="lstm/lstm_cell/kernel:0">
					<dim>64</dim>
					<dim>200</dim>
				</port>
			</output>
		</layer>
		<layer id="47" name="lstm/lstm_cell/recurrent_kernel_compressed" type="Const" version="opset1">
			<data element_type="f16" shape="50, 200" offset="26179" size="20000" />
			<output>
				<port id="0" precision="FP16">
					<dim>50</dim>
					<dim>200</dim>
				</port>
			</output>
		</layer>
		<layer id="48" name="lstm/lstm_cell/recurrent_kernel" type="Convert" version="opset1">
			<data destination_type="f32" />
			<rt_info>
				<attribute name="decompression" version="0" />
			</rt_info>
			<input>
				<port id="0" precision="FP16">
					<dim>50</dim>
					<dim>200</dim>
				</port>
			</input>
			<output>
				<port id="1" precision="FP32" names="lstm/lstm_cell/recurrent_kernel:0">
					<dim>50</dim>
					<dim>200</dim>
				</port>
			</output>
		</layer>
		<layer id="49" name="lstm/lstm_cell/bias_compressed" type="Const" version="opset1">
			<data element_type="f16" shape="200" offset="46179" size="400" />
			<output>
				<port id="0" precision="FP16">
					<dim>200</dim>
				</port>
			</output>
		</layer>
		<layer id="50" name="lstm/lstm_cell/bias" type="Convert" version="opset1">
			<data destination_type="f32" />
			<rt_info>
				<attribute name="decompression" version="0" />
			</rt_info>
			<input>
				<port id="0" precision="FP16">
					<dim>200</dim>
				</port>
			</input>
			<output>
				<port id="1" precision="FP32" names="lstm/lstm_cell/bias:0">
					<dim>200</dim>
				</port>
			</output>
		</layer>
		<layer id="51" name="while" type="Loop" version="opset5">
			<port_map>
				<input external_port_id="2" internal_layer_id="10" />
				<input external_port_id="3" internal_layer_id="9" />
				<input external_port_id="4" internal_layer_id="8" />
				<input external_port_id="5" internal_layer_id="7" />
				<input external_port_id="6" internal_layer_id="6" />
				<input external_port_id="7" internal_layer_id="5" />
				<input external_port_id="8" internal_layer_id="4" />
				<input external_port_id="9" internal_layer_id="3" />
				<input external_port_id="10" internal_layer_id="2" />
				<input external_port_id="11" internal_layer_id="1" />
				<input external_port_id="12" internal_layer_id="0" />
				<output external_port_id="13" internal_layer_id="63" />
				<output external_port_id="-1" internal_layer_id="14" purpose="execution_condition" />
			</port_map>
			<back_edges>
				<edge from-layer="68" to-layer="10" />
				<edge from-layer="65" to-layer="9" />
				<edge from-layer="64" to-layer="8" />
				<edge from-layer="63" to-layer="7" />
				<edge from-layer="39" to-layer="6" />
				<edge from-layer="35" to-layer="5" />
				<edge from-layer="19" to-layer="4" />
				<edge from-layer="18" to-layer="3" />
				<edge from-layer="17" to-layer="2" />
				<edge from-layer="16" to-layer="1" />
				<edge from-layer="15" to-layer="0" />
			</back_edges>
			<input>
				<port id="0" precision="I32" />
				<port id="1" precision="BOOL" />
				<port id="2" precision="I32" />
				<port id="3" precision="I32" />
				<port id="4" precision="I32" />
				<port id="5" precision="FP32">
					<dim>0</dim>
					<dim>0</dim>
				</port>
				<port id="6" precision="FP32">
					<dim>-1</dim>
					<dim>50</dim>
				</port>
				<port id="7" precision="FP32">
					<dim>-1</dim>
					<dim>50</dim>
				</port>
				<port id="8" precision="I32" />
				<port id="9" precision="FP32">
					<dim>91</dim>
					<dim>-1</dim>
					<dim>64</dim>
				</port>
				<port id="10" precision="FP32">
					<dim>64</dim>
					<dim>200</dim>
				</port>
				<port id="11" precision="FP32">
					<dim>50</dim>
					<dim>200</dim>
				</port>
				<port id="12" precision="FP32">
					<dim>200</dim>
				</port>
			</input>
			<output>
				<port id="13" precision="FP32">
					<dim>-1</dim>
					<dim>-1</dim>
				</port>
			</output>
			<body>
				<layers>
					<layer id="10" name="while_while_loop_counter" type="Parameter" version="opset1">
						<data shape="" element_type="i32" />
						<rt_info>
							<attribute name="fused_names" version="0" value="while_while_loop_counter" />
						</rt_info>
						<output>
							<port id="0" precision="I32" />
						</output>
					</layer>
					<layer id="9" name="while_while_maximum_iterations" type="Parameter" version="opset1">
						<data shape="" element_type="i32" />
						<rt_info>
							<attribute name="fused_names" version="0" value="while_while_maximum_iterations" />
						</rt_info>
						<output>
							<port id="0" precision="I32" />
						</output>
					</layer>
					<layer id="8" name="while_placeholder" type="Parameter" version="opset1">
						<data shape="" element_type="i32" />
						<rt_info>
							<attribute name="fused_names" version="0" value="while_placeholder" />
						</rt_info>
						<output>
							<port id="0" precision="I32" />
						</output>
					</layer>
					<layer id="7" name="while_placeholder_1" type="Parameter" version="opset1">
						<data shape="0,0" element_type="f32" />
						<rt_info>
							<attribute name="fused_names" version="0" value="while_placeholder_1" />
						</rt_info>
						<output>
							<port id="0" precision="FP32">
								<dim>0</dim>
								<dim>0</dim>
							</port>
						</output>
					</layer>
					<layer id="6" name="while_placeholder_2" type="Parameter" version="opset1">
						<data shape="?,50" element_type="f32" />
						<rt_info>
							<attribute name="fused_names" version="0" value="while_placeholder_2" />
						</rt_info>
						<output>
							<port id="0" precision="FP32">
								<dim>-1</dim>
								<dim>50</dim>
							</port>
						</output>
					</layer>
					<layer id="5" name="while_placeholder_3" type="Parameter" version="opset1">
						<data shape="?,50" element_type="f32" />
						<rt_info>
							<attribute name="fused_names" version="0" value="while_placeholder_3" />
						</rt_info>
						<output>
							<port id="0" precision="FP32">
								<dim>-1</dim>
								<dim>50</dim>
							</port>
						</output>
					</layer>
					<layer id="4" name="while_strided_slice_0" type="Parameter" version="opset1">
						<data shape="" element_type="i32" />
						<rt_info>
							<attribute name="fused_names" version="0" value="while_strided_slice_0" />
						</rt_info>
						<output>
							<port id="0" precision="I32" />
						</output>
					</layer>
					<layer id="3" name="while_tensorarrayv2read_tensorlistgetitem_tensorarrayunstack_tensorlistfromtensor_0" type="Parameter" version="opset1">
						<data shape="91,?,64" element_type="f32" />
						<rt_info>
							<attribute name="fused_names" version="0" value="while_tensorarrayv2read_tensorlistgetitem_tensorarrayunstack_tensorlistfromtensor_0" />
						</rt_info>
						<output>
							<port id="0" precision="FP32">
								<dim>91</dim>
								<dim>-1</dim>
								<dim>64</dim>
							</port>
						</output>
					</layer>
					<layer id="2" name="while_matmul_kernel_0" type="Parameter" version="opset1">
						<data shape="64,200" element_type="f32" />
						<rt_info>
							<attribute name="fused_names" version="0" value="while_matmul_kernel_0" />
						</rt_info>
						<output>
							<port id="0" precision="FP32">
								<dim>64</dim>
								<dim>200</dim>
							</port>
						</output>
					</layer>
					<layer id="1" name="while_matmul_1_recurrent_kernel_0" type="Parameter" version="opset1">
						<data shape="50,200" element_type="f32" />
						<rt_info>
							<attribute name="fused_names" version="0" value="while_matmul_1_recurrent_kernel_0" />
						</rt_info>
						<output>
							<port id="0" precision="FP32">
								<dim>50</dim>
								<dim>200</dim>
							</port>
						</output>
					</layer>
					<layer id="0" name="while_biasadd_bias_0" type="Parameter" version="opset1">
						<data shape="200" element_type="f32" />
						<rt_info>
							<attribute name="fused_names" version="0" value="while_biasadd_bias_0" />
						</rt_info>
						<output>
							<port id="0" precision="FP32">
								<dim>200</dim>
							</port>
						</output>
					</layer>
					<layer id="11" name="while/add_2/y" type="Const" version="opset1">
						<data element_type="i32" shape="" offset="560" size="4" />
						<rt_info>
							<attribute name="fused_names" version="0" value="while/add_2/y" />
						</rt_info>
						<output>
							<port id="0" precision="I32" />
						</output>
					</layer>
					<layer id="12" name="while/add_2" type="Add" version="opset1">
						<data auto_broadcast="numpy" />
						<rt_info>
							<attribute name="fused_names" version="0" value="while/add_2" />
						</rt_info>
						<input>
							<port id="0" precision="I32" />
							<port id="1" precision="I32" />
						</input>
						<output>
							<port id="2" precision="I32" />
						</output>
					</layer>
					<layer id="13" name="while/Less" type="Less" version="opset1">
						<data auto_broadcast="numpy" />
						<rt_info>
							<attribute name="fused_names" version="0" value="while/Less" />
						</rt_info>
						<input>
							<port id="0" precision="I32" />
							<port id="1" precision="I32" />
						</input>
						<output>
							<port id="2" precision="BOOL" />
						</output>
					</layer>
					<layer id="20" name="Squeeze_139" type="Squeeze" version="opset1">
						<rt_info>
							<attribute name="fused_names" version="0" value="Squeeze_139, Squeeze_159" />
						</rt_info>
						<input>
							<port id="0" precision="I32" />
						</input>
						<output>
							<port id="1" precision="I32" />
						</output>
					</layer>
					<layer id="21" name="Constant_140" type="Const" version="opset1">
						<data element_type="i32" shape="1" offset="4" size="4" />
						<rt_info>
							<attribute name="fused_names" version="0" value="Constant_140" />
						</rt_info>
						<output>
							<port id="0" precision="I32">
								<dim>1</dim>
							</port>
						</output>
					</layer>
					<layer id="22" name="Gather_141" type="Gather" version="opset8">
						<data batch_dims="0" />
						<rt_info>
							<attribute name="fused_names" version="0" value="Gather_141, while/TensorArrayV2Read/TensorListGetItem" />
						</rt_info>
						<input>
							<port id="0" precision="FP32">
								<dim>91</dim>
								<dim>-1</dim>
								<dim>64</dim>
							</port>
							<port id="1" precision="I32" />
							<port id="2" precision="I32">
								<dim>1</dim>
							</port>
						</input>
						<output>
							<port id="3" precision="FP32">
								<dim>-1</dim>
								<dim>64</dim>
							</port>
						</output>
					</layer>
					<layer id="23" name="while/MatMul" type="MatMul" version="opset1">
						<data transpose_a="false" transpose_b="false" />
						<rt_info>
							<attribute name="fused_names" version="0" value="while/MatMul" />
						</rt_info>
						<input>
							<port id="0" precision="FP32">
								<dim>-1</dim>
								<dim>64</dim>
							</port>
							<port id="1" precision="FP32">
								<dim>64</dim>
								<dim>200</dim>
							</port>
						</input>
						<output>
							<port id="2" precision="FP32">
								<dim>-1</dim>
								<dim>200</dim>
							</port>
						</output>
					</layer>
					<layer id="24" name="while/MatMul_1" type="MatMul" version="opset1">
						<data transpose_a="false" transpose_b="false" />
						<rt_info>
							<attribute name="fused_names" version="0" value="while/MatMul_1" />
						</rt_info>
						<input>
							<port id="0" precision="FP32">
								<dim>-1</dim>
								<dim>50</dim>
							</port>
							<port id="1" precision="FP32">
								<dim>50</dim>
								<dim>200</dim>
							</port>
						</input>
						<output>
							<port id="2" precision="FP32">
								<dim>-1</dim>
								<dim>200</dim>
							</port>
						</output>
					</layer>
					<layer id="25" name="while/add" type="Add" version="opset1">
						<data auto_broadcast="numpy" />
						<rt_info>
							<attribute name="fused_names" version="0" value="while/add" />
						</rt_info>
						<input>
							<port id="0" precision="FP32">
								<dim>-1</dim>
								<dim>200</dim>
							</port>
							<port id="1" precision="FP32">
								<dim>-1</dim>
								<dim>200</dim>
							</port>
						</input>
						<output>
							<port id="2" precision="FP32">
								<dim>-1</dim>
								<dim>200</dim>
							</port>
						</output>
					</layer>
					<layer id="26" name="while/BiasAdd" type="Add" version="opset1">
						<data auto_broadcast="numpy" />
						<rt_info>
							<attribute name="fused_names" version="0" value="while/BiasAdd" />
						</rt_info>
						<input>
							<port id="0" precision="FP32">
								<dim>-1</dim>
								<dim>200</dim>
							</port>
							<port id="1" precision="FP32">
								<dim>200</dim>
							</port>
						</input>
						<output>
							<port id="2" precision="FP32">
								<dim>-1</dim>
								<dim>200</dim>
							</port>
						</output>
					</layer>
					<layer id="27" name="while/split/split_dim" type="Const" version="opset1">
						<data element_type="i32" shape="" offset="560" size="4" />
						<rt_info>
							<attribute name="fused_names" version="0" value="while/split/split_dim" />
						</rt_info>
						<output>
							<port id="0" precision="I32" />
						</output>
					</layer>
					<layer id="28" name="while/split" type="Split" version="opset1">
						<data num_splits="4" />
						<rt_info>
							<attribute name="fused_names" version="0" value="while/split" />
						</rt_info>
						<input>
							<port id="0" precision="FP32">
								<dim>-1</dim>
								<dim>200</dim>
							</port>
							<port id="1" precision="I32" />
						</input>
						<output>
							<port id="2" precision="FP32">
								<dim>-1</dim>
								<dim>50</dim>
							</port>
							<port id="3" precision="FP32">
								<dim>-1</dim>
								<dim>50</dim>
							</port>
							<port id="4" precision="FP32">
								<dim>-1</dim>
								<dim>50</dim>
							</port>
							<port id="5" precision="FP32">
								<dim>-1</dim>
								<dim>50</dim>
							</port>
						</output>
					</layer>
					<layer id="29" name="while/Sigmoid_1" type="Sigmoid" version="opset1">
						<rt_info>
							<attribute name="fused_names" version="0" value="while/Sigmoid_1" />
						</rt_info>
						<input>
							<port id="0" precision="FP32">
								<dim>-1</dim>
								<dim>50</dim>
							</port>
						</input>
						<output>
							<port id="1" precision="FP32">
								<dim>-1</dim>
								<dim>50</dim>
							</port>
						</output>
					</layer>
					<layer id="30" name="while/mul" type="Multiply" version="opset1">
						<data auto_broadcast="numpy" />
						<rt_info>
							<attribute name="fused_names" version="0" value="while/mul" />
						</rt_info>
						<input>
							<port id="0" precision="FP32">
								<dim>-1</dim>
								<dim>50</dim>
							</port>
							<port id="1" precision="FP32">
								<dim>-1</dim>
								<dim>50</dim>
							</port>
						</input>
						<output>
							<port id="2" precision="FP32">
								<dim>-1</dim>
								<dim>50</dim>
							</port>
						</output>
					</layer>
					<layer id="31" name="while/Sigmoid" type="Sigmoid" version="opset1">
						<rt_info>
							<attribute name="fused_names" version="0" value="while/Sigmoid" />
						</rt_info>
						<input>
							<port id="0" precision="FP32">
								<dim>-1</dim>
								<dim>50</dim>
							</port>
						</input>
						<output>
							<port id="1" precision="FP32">
								<dim>-1</dim>
								<dim>50</dim>
							</port>
						</output>
					</layer>
					<layer id="32" name="while/Tanh" type="Tanh" version="opset1">
						<rt_info>
							<attribute name="fused_names" version="0" value="while/Tanh" />
						</rt_info>
						<input>
							<port id="0" precision="FP32">
								<dim>-1</dim>
								<dim>50</dim>
							</port>
						</input>
						<output>
							<port id="1" precision="FP32">
								<dim>-1</dim>
								<dim>50</dim>
							</port>
						</output>
					</layer>
					<layer id="33" name="while/mul_1" type="Multiply" version="opset1">
						<data auto_broadcast="numpy" />
						<rt_info>
							<attribute name="fused_names" version="0" value="while/mul_1" />
						</rt_info>
						<input>
							<port id="0" precision="FP32">
								<dim>-1</dim>
								<dim>50</dim>
							</port>
							<port id="1" precision="FP32">
								<dim>-1</dim>
								<dim>50</dim>
							</port>
						</input>
						<output>
							<port id="2" precision="FP32">
								<dim>-1</dim>
								<dim>50</dim>
							</port>
						</output>
					</layer>
					<layer id="34" name="while/add_1" type="Add" version="opset1">
						<data auto_broadcast="numpy" />
						<rt_info>
							<attribute name="fused_names" version="0" value="while/add_1" />
						</rt_info>
						<input>
							<port id="0" precision="FP32">
								<dim>-1</dim>
								<dim>50</dim>
							</port>
							<port id="1" precision="FP32">
								<dim>-1</dim>
								<dim>50</dim>
							</port>
						</input>
						<output>
							<port id="2" precision="FP32">
								<dim>-1</dim>
								<dim>50</dim>
							</port>
						</output>
					</layer>
					<layer id="36" name="while/Sigmoid_2" type="Sigmoid" version="opset1">
						<rt_info>
							<attribute name="fused_names" version="0" value="while/Sigmoid_2" />
						</rt_info>
						<input>
							<port id="0" precision="FP32">
								<dim>-1</dim>
								<dim>50</dim>
							</port>
						</input>
						<output>
							<port id="1" precision="FP32">
								<dim>-1</dim>
								<dim>50</dim>
							</port>
						</output>
					</layer>
					<layer id="37" name="while/Tanh_1" type="Tanh" version="opset1">
						<rt_info>
							<attribute name="fused_names" version="0" value="while/Tanh_1" />
						</rt_info>
						<input>
							<port id="0" precision="FP32">
								<dim>-1</dim>
								<dim>50</dim>
							</port>
						</input>
						<output>
							<port id="1" precision="FP32">
								<dim>-1</dim>
								<dim>50</dim>
							</port>
						</output>
					</layer>
					<layer id="38" name="while/mul_2" type="Multiply" version="opset1">
						<data auto_broadcast="numpy" />
						<rt_info>
							<attribute name="fused_names" version="0" value="while/mul_2" />
						</rt_info>
						<input>
							<port id="0" precision="FP32">
								<dim>-1</dim>
								<dim>50</dim>
							</port>
							<port id="1" precision="FP32">
								<dim>-1</dim>
								<dim>50</dim>
							</port>
						</input>
						<output>
							<port id="2" precision="FP32">
								<dim>-1</dim>
								<dim>50</dim>
							</port>
						</output>
					</layer>
					<layer id="40" name="Constant_163" type="Const" version="opset1">
						<data element_type="i32" shape="1" offset="0" size="4" />
						<rt_info>
							<attribute name="fused_names" version="0" value="Constant_163" />
							<attribute name="precise" version="0" />
						</rt_info>
						<output>
							<port id="0" precision="I32">
								<dim>1</dim>
							</port>
						</output>
					</layer>
					<layer id="41" name="Constant_1428" type="Const" version="opset1">
						<data element_type="i64" shape="1" offset="46579" size="8" />
						<rt_info>
							<attribute name="fused_names" version="0" value="Constant_1428" />
							<attribute name="precise" version="0" />
						</rt_info>
						<output>
							<port id="0" precision="I64">
								<dim>1</dim>
							</port>
						</output>
					</layer>
					<layer id="42" name="Reshape_161" type="Reshape" version="opset1">
						<data special_zero="false" />
						<rt_info>
							<attribute name="fused_names" version="0" value="Reshape_161" />
						</rt_info>
						<input>
							<port id="0" precision="FP32">
								<dim>-1</dim>
								<dim>50</dim>
							</port>
							<port id="1" precision="I64">
								<dim>1</dim>
							</port>
						</input>
						<output>
							<port id="2" precision="FP32">
								<dim>-1</dim>
							</port>
						</output>
					</layer>
					<layer id="43" name="ShapeOf_162" type="ShapeOf" version="opset3">
						<data output_type="i32" />
						<rt_info>
							<attribute name="fused_names" version="0" value="ShapeOf_162" />
						</rt_info>
						<input>
							<port id="0" precision="FP32">
								<dim>-1</dim>
							</port>
						</input>
						<output>
							<port id="1" precision="I32">
								<dim>1</dim>
							</port>
						</output>
					</layer>
					<layer id="44" name="Concat_164" type="Concat" version="opset1">
						<data axis="0" />
						<rt_info>
							<attribute name="fused_names" version="0" value="Concat_164, Constant_163, ShapeOf_162" />
						</rt_info>
						<input>
							<port id="0" precision="I32">
								<dim>1</dim>
							</port>
							<port id="1" precision="I32">
								<dim>1</dim>
							</port>
						</input>
						<output>
							<port id="2" precision="I32">
								<dim>2</dim>
							</port>
						</output>
					</layer>
					<layer id="45" name="Reshape_165" type="Reshape" version="opset1">
						<data special_zero="false" />
						<rt_info>
							<attribute name="fused_names" version="0" value="Reshape_165" />
						</rt_info>
						<input>
							<port id="0" precision="FP32">
								<dim>0</dim>
								<dim>0</dim>
							</port>
							<port id="1" precision="I32">
								<dim>2</dim>
							</port>
						</input>
						<output>
							<port id="2" precision="FP32">
								<dim>-1</dim>
								<dim>-1</dim>
							</port>
						</output>
					</layer>
					<layer id="46" name="ConvertLike_168" type="ConvertLike" version="opset1">
						<rt_info>
							<attribute name="fused_names" version="0" value="ConvertLike_168" />
						</rt_info>
						<input>
							<port id="0" precision="FP32">
								<dim>-1</dim>
								<dim>-1</dim>
							</port>
							<port id="1" precision="FP32">
								<dim>-1</dim>
							</port>
						</input>
						<output>
							<port id="2" precision="FP32">
								<dim>-1</dim>
								<dim>-1</dim>
							</port>
						</output>
					</layer>
					<layer id="47" name="Constant_178_compressed" type="Const" version="opset1">
						<data element_type="f16" shape="" offset="565" size="2" />
						<rt_info>
							<attribute name="fused_names" version="0" value="Constant_178" />
						</rt_info>
						<output>
							<port id="0" precision="FP16" />
						</output>
					</layer>
					<layer id="48" name="Constant_178" type="Convert" version="opset1">
						<data destination_type="f32" />
						<rt_info>
							<attribute name="decompression" version="0" />
							<attribute name="fused_names" version="0" value="Constant_178" />
						</rt_info>
						<input>
							<port id="0" precision="FP16" />
						</input>
						<output>
							<port id="1" precision="FP32" />
						</output>
					</layer>
					<layer id="49" name="ShapeOf_169" type="ShapeOf" version="opset3">
						<data output_type="i32" />
						<rt_info>
							<attribute name="fused_names" version="0" value="ShapeOf_169" />
						</rt_info>
						<input>
							<port id="0" precision="FP32">
								<dim>-1</dim>
								<dim>-1</dim>
							</port>
						</input>
						<output>
							<port id="1" precision="I32">
								<dim>2</dim>
							</port>
						</output>
					</layer>
					<layer id="50" name="Constant_170" type="Const" version="opset1">
						<data element_type="i32" shape="1" offset="4" size="4" />
						<rt_info>
							<attribute name="fused_names" version="0" value="Slice_172" />
							<attribute name="precise" version="0" />
						</rt_info>
						<output>
							<port id="0" precision="I32">
								<dim>1</dim>
							</port>
						</output>
					</layer>
					<layer id="51" name="Constant_171" type="Const" version="opset1">
						<data element_type="i32" shape="1" offset="560" size="4" />
						<rt_info>
							<attribute name="fused_names" version="0" value="Slice_172" />
							<attribute name="precise" version="0" />
						</rt_info>
						<output>
							<port id="0" precision="I32">
								<dim>1</dim>
							</port>
						</output>
					</layer>
					<layer id="52" name="Slice_172" type="StridedSlice" version="opset1">
						<data begin_mask="0" end_mask="0" new_axis_mask="" shrink_axis_mask="" ellipsis_mask="" />
						<rt_info>
							<attribute name="fused_names" version="0" value="Slice_172" />
						</rt_info>
						<input>
							<port id="0" precision="I32">
								<dim>2</dim>
							</port>
							<port id="1" precision="I32">
								<dim>1</dim>
							</port>
							<port id="2" precision="I32">
								<dim>1</dim>
							</port>
							<port id="3" precision="I32">
								<dim>1</dim>
							</port>
						</input>
						<output>
							<port id="4" precision="I32">
								<dim>1</dim>
							</port>
						</output>
					</layer>
					<layer id="53" name="Constant_174" type="Const" version="opset1">
						<data element_type="i32" shape="1" offset="560" size="4" />
						<rt_info>
							<attribute name="fused_names" version="0" value="Constant_174" />
							<attribute name="precise" version="0" />
						</rt_info>
						<output>
							<port id="0" precision="I32">
								<dim>1</dim>
							</port>
						</output>
					</layer>
					<layer id="54" name="Add_175" type="Add" version="opset1">
						<data auto_broadcast="numpy" />
						<rt_info>
							<attribute name="fused_names" version="0" value="Add_175" />
						</rt_info>
						<input>
							<port id="0" precision="I32" />
							<port id="1" precision="I32">
								<dim>1</dim>
							</port>
						</input>
						<output>
							<port id="2" precision="I32">
								<dim>1</dim>
							</port>
						</output>
					</layer>
					<layer id="55" name="Maximum_176" type="Maximum" version="opset1">
						<data auto_broadcast="numpy" />
						<rt_info>
							<attribute name="fused_names" version="0" value="Maximum_176" />
						</rt_info>
						<input>
							<port id="0" precision="I32">
								<dim>1</dim>
							</port>
							<port id="1" precision="I32">
								<dim>1</dim>
							</port>
						</input>
						<output>
							<port id="2" precision="I32">
								<dim>1</dim>
							</port>
						</output>
					</layer>
					<layer id="56" name="Subtract_177" type="Subtract" version="opset1">
						<data auto_broadcast="numpy" />
						<rt_info>
							<attribute name="fused_names" version="0" value="Subtract_177" />
						</rt_info>
						<input>
							<port id="0" precision="I32">
								<dim>1</dim>
							</port>
							<port id="1" precision="I32">
								<dim>1</dim>
							</port>
						</input>
						<output>
							<port id="2" precision="I32">
								<dim>1</dim>
							</port>
						</output>
					</layer>
					<layer id="57" name="Concat_179" type="Concat" version="opset1">
						<data axis="0" />
						<rt_info>
							<attribute name="fused_names" version="0" value="Concat_179" />
						</rt_info>
						<input>
							<port id="0" precision="I32">
								<dim>1</dim>
							</port>
							<port id="1" precision="I32">
								<dim>1</dim>
							</port>
						</input>
						<output>
							<port id="2" precision="I32">
								<dim>2</dim>
							</port>
						</output>
					</layer>
					<layer id="58" name="Broadcast_180" type="Broadcast" version="opset3">
						<data mode="numpy" />
						<rt_info>
							<attribute name="fused_names" version="0" value="Broadcast_180" />
						</rt_info>
						<input>
							<port id="0" precision="FP32" />
							<port id="1" precision="I32">
								<dim>2</dim>
							</port>
						</input>
						<output>
							<port id="2" precision="FP32">
								<dim>-1</dim>
								<dim>-1</dim>
							</port>
						</output>
					</layer>
					<layer id="59" name="Concat_181" type="Concat" version="opset1">
						<data axis="0" />
						<rt_info>
							<attribute name="fused_names" version="0" value="Concat_181" />
						</rt_info>
						<input>
							<port id="0" precision="FP32">
								<dim>-1</dim>
								<dim>-1</dim>
							</port>
							<port id="1" precision="FP32">
								<dim>-1</dim>
								<dim>-1</dim>
							</port>
						</input>
						<output>
							<port id="2" precision="FP32">
								<dim>-1</dim>
								<dim>-1</dim>
							</port>
						</output>
					</layer>
					<layer id="60" name="Unsqueeze_182" type="Unsqueeze" version="opset1">
						<rt_info>
							<attribute name="fused_names" version="0" value="Unsqueeze_182" />
						</rt_info>
						<input>
							<port id="0" precision="I32" />
							<port id="1" precision="I32">
								<dim>1</dim>
							</port>
						</input>
						<output>
							<port id="2" precision="I32">
								<dim>1</dim>
							</port>
						</output>
					</layer>
					<layer id="61" name="Unsqueeze_183" type="Unsqueeze" version="opset1">
						<rt_info>
							<attribute name="fused_names" version="0" value="Unsqueeze_183" />
						</rt_info>
						<input>
							<port id="0" precision="FP32">
								<dim>-1</dim>
							</port>
							<port id="1" precision="I32">
								<dim>1</dim>
							</port>
						</input>
						<output>
							<port id="2" precision="FP32">
								<dim>1</dim>
								<dim>-1</dim>
							</port>
						</output>
					</layer>
					<layer id="62" name="while/TensorArrayV2Write/TensorListSetItem" type="ScatterUpdate" version="opset3">
						<rt_info>
							<attribute name="fused_names" version="0" value="while/TensorArrayV2Write/TensorListSetItem" />
						</rt_info>
						<input>
							<port id="0" precision="FP32">
								<dim>-1</dim>
								<dim>-1</dim>
							</port>
							<port id="1" precision="I32">
								<dim>1</dim>
							</port>
							<port id="2" precision="FP32">
								<dim>1</dim>
								<dim>-1</dim>
							</port>
							<port id="3" precision="I32">
								<dim>1</dim>
							</port>
						</input>
						<output>
							<port id="4" precision="FP32">
								<dim>-1</dim>
								<dim>-1</dim>
							</port>
						</output>
					</layer>
					<layer id="66" name="while/add_3/y" type="Const" version="opset1">
						<data element_type="i32" shape="" offset="560" size="4" />
						<rt_info>
							<attribute name="fused_names" version="0" value="while/add_3/y" />
						</rt_info>
						<output>
							<port id="0" precision="I32" />
						</output>
					</layer>
					<layer id="67" name="while/add_3" type="Add" version="opset1">
						<data auto_broadcast="numpy" />
						<rt_info>
							<attribute name="fused_names" version="0" value="while/add_3" />
						</rt_info>
						<input>
							<port id="0" precision="I32" />
							<port id="1" precision="I32" />
						</input>
						<output>
							<port id="2" precision="I32" />
						</output>
					</layer>
					<layer id="68" name="while_identity" type="Result" version="opset1">
						<rt_info>
							<attribute name="fused_names" version="0" value="while_identity" />
						</rt_info>
						<input>
							<port id="0" precision="I32" />
						</input>
					</layer>
					<layer id="65" name="while_identity_1" type="Result" version="opset1">
						<rt_info>
							<attribute name="fused_names" version="0" value="while_identity_1" />
						</rt_info>
						<input>
							<port id="0" precision="I32" />
						</input>
					</layer>
					<layer id="64" name="while_identity_2" type="Result" version="opset1">
						<rt_info>
							<attribute name="fused_names" version="0" value="while_identity_2" />
						</rt_info>
						<input>
							<port id="0" precision="I32" />
						</input>
					</layer>
					<layer id="63" name="while_identity_3" type="Result" version="opset1">
						<rt_info>
							<attribute name="fused_names" version="0" value="while_identity_3" />
						</rt_info>
						<input>
							<port id="0" precision="FP32">
								<dim>-1</dim>
								<dim>-1</dim>
							</port>
						</input>
					</layer>
					<layer id="39" name="while_identity_4" type="Result" version="opset1">
						<rt_info>
							<attribute name="fused_names" version="0" value="while_identity_4" />
						</rt_info>
						<input>
							<port id="0" precision="FP32">
								<dim>-1</dim>
								<dim>50</dim>
							</port>
						</input>
					</layer>
					<layer id="35" name="while_identity_5" type="Result" version="opset1">
						<rt_info>
							<attribute name="fused_names" version="0" value="while_identity_5" />
						</rt_info>
						<input>
							<port id="0" precision="FP32">
								<dim>-1</dim>
								<dim>50</dim>
							</port>
						</input>
					</layer>
					<layer id="19" name="while_strided_slice" type="Result" version="opset1">
						<rt_info>
							<attribute name="fused_names" version="0" value="while_strided_slice" />
						</rt_info>
						<input>
							<port id="0" precision="I32" />
						</input>
					</layer>
					<layer id="18" name="while_tensorarrayv2read_tensorlistgetitem_tensorarrayunstack_tensorlistfromtensor" type="Result" version="opset1">
						<rt_info>
							<attribute name="fused_names" version="0" value="while_tensorarrayv2read_tensorlistgetitem_tensorarrayunstack_tensorlistfromtensor" />
						</rt_info>
						<input>
							<port id="0" precision="FP32">
								<dim>91</dim>
								<dim>-1</dim>
								<dim>64</dim>
							</port>
						</input>
					</layer>
					<layer id="17" name="while_matmul_kernel" type="Result" version="opset1">
						<rt_info>
							<attribute name="fused_names" version="0" value="while_matmul_kernel" />
						</rt_info>
						<input>
							<port id="0" precision="FP32">
								<dim>64</dim>
								<dim>200</dim>
							</port>
						</input>
					</layer>
					<layer id="16" name="while_matmul_1_recurrent_kernel" type="Result" version="opset1">
						<rt_info>
							<attribute name="fused_names" version="0" value="while_matmul_1_recurrent_kernel" />
						</rt_info>
						<input>
							<port id="0" precision="FP32">
								<dim>50</dim>
								<dim>200</dim>
							</port>
						</input>
					</layer>
					<layer id="15" name="while_biasadd_bias" type="Result" version="opset1">
						<rt_info>
							<attribute name="fused_names" version="0" value="while_biasadd_bias" />
						</rt_info>
						<input>
							<port id="0" precision="FP32">
								<dim>200</dim>
							</port>
						</input>
					</layer>
					<layer id="14" name="while_identity0" type="Result" version="opset1">
						<rt_info>
							<attribute name="fused_names" version="0" value="while_identity" />
						</rt_info>
						<input>
							<port id="0" precision="BOOL" />
						</input>
					</layer>
				</layers>
				<edges>
					<edge from-layer="0" from-port="0" to-layer="26" to-port="1" />
					<edge from-layer="0" from-port="0" to-layer="15" to-port="0" />
					<edge from-layer="1" from-port="0" to-layer="24" to-port="1" />
					<edge from-layer="1" from-port="0" to-layer="16" to-port="0" />
					<edge from-layer="2" from-port="0" to-layer="23" to-port="1" />
					<edge from-layer="2" from-port="0" to-layer="17" to-port="0" />
					<edge from-layer="3" from-port="0" to-layer="18" to-port="0" />
					<edge from-layer="3" from-port="0" to-layer="22" to-port="0" />
					<edge from-layer="4" from-port="0" to-layer="13" to-port="1" />
					<edge from-layer="4" from-port="0" to-layer="19" to-port="0" />
					<edge from-layer="5" from-port="0" to-layer="30" to-port="1" />
					<edge from-layer="6" from-port="0" to-layer="24" to-port="0" />
					<edge from-layer="7" from-port="0" to-layer="45" to-port="0" />
					<edge from-layer="8" from-port="0" to-layer="20" to-port="0" />
					<edge from-layer="8" from-port="0" to-layer="12" to-port="0" />
					<edge from-layer="9" from-port="0" to-layer="65" to-port="0" />
					<edge from-layer="10" from-port="0" to-layer="67" to-port="0" />
					<edge from-layer="11" from-port="0" to-layer="12" to-port="1" />
					<edge from-layer="12" from-port="2" to-layer="64" to-port="0" />
					<edge from-layer="12" from-port="2" to-layer="13" to-port="0" />
					<edge from-layer="13" from-port="2" to-layer="14" to-port="0" />
					<edge from-layer="20" from-port="1" to-layer="60" to-port="0" />
					<edge from-layer="20" from-port="1" to-layer="54" to-port="0" />
					<edge from-layer="20" from-port="1" to-layer="22" to-port="1" />
					<edge from-layer="21" from-port="0" to-layer="22" to-port="2" />
					<edge from-layer="22" from-port="3" to-layer="23" to-port="0" />
					<edge from-layer="23" from-port="2" to-layer="25" to-port="0" />
					<edge from-layer="24" from-port="2" to-layer="25" to-port="1" />
					<edge from-layer="25" from-port="2" to-layer="26" to-port="0" />
					<edge from-layer="26" from-port="2" to-layer="28" to-port="0" />
					<edge from-layer="27" from-port="0" to-layer="28" to-port="1" />
					<edge from-layer="28" from-port="3" to-layer="29" to-port="0" />
					<edge from-layer="28" from-port="5" to-layer="36" to-port="0" />
					<edge from-layer="28" from-port="4" to-layer="32" to-port="0" />
					<edge from-layer="28" from-port="2" to-layer="31" to-port="0" />
					<edge from-layer="29" from-port="1" to-layer="30" to-port="0" />
					<edge from-layer="30" from-port="2" to-layer="34" to-port="0" />
					<edge from-layer="31" from-port="1" to-layer="33" to-port="0" />
					<edge from-layer="32" from-port="1" to-layer="33" to-port="1" />
					<edge from-layer="33" from-port="2" to-layer="34" to-port="1" />
					<edge from-layer="34" from-port="2" to-layer="37" to-port="0" />
					<edge from-layer="34" from-port="2" to-layer="35" to-port="0" />
					<edge from-layer="36" from-port="1" to-layer="38" to-port="0" />
					<edge from-layer="37" from-port="1" to-layer="38" to-port="1" />
					<edge from-layer="38" from-port="2" to-layer="42" to-port="0" />
					<edge from-layer="38" from-port="2" to-layer="39" to-port="0" />
					<edge from-layer="40" from-port="0" to-layer="44" to-port="0" />
					<edge from-layer="41" from-port="0" to-layer="42" to-port="1" />
					<edge from-layer="42" from-port="2" to-layer="43" to-port="0" />
					<edge from-layer="42" from-port="2" to-layer="61" to-port="0" />
					<edge from-layer="42" from-port="2" to-layer="46" to-port="1" />
					<edge from-layer="43" from-port="1" to-layer="44" to-port="1" />
					<edge from-layer="43" from-port="1" to-layer="57" to-port="1" />
					<edge from-layer="44" from-port="2" to-layer="45" to-port="1" />
					<edge from-layer="45" from-port="2" to-layer="46" to-port="0" />
					<edge from-layer="46" from-port="2" to-layer="49" to-port="0" />
					<edge from-layer="46" from-port="2" to-layer="59" to-port="0" />
					<edge from-layer="47" from-port="0" to-layer="48" to-port="0" />
					<edge from-layer="48" from-port="1" to-layer="58" to-port="0" />
					<edge from-layer="49" from-port="1" to-layer="52" to-port="0" />
					<edge from-layer="50" from-port="0" to-layer="52" to-port="1" />
					<edge from-layer="50" from-port="0" to-layer="60" to-port="1" />
					<edge from-layer="50" from-port="0" to-layer="61" to-port="1" />
					<edge from-layer="50" from-port="0" to-layer="62" to-port="3" />
					<edge from-layer="51" from-port="0" to-layer="52" to-port="3" />
					<edge from-layer="51" from-port="0" to-layer="52" to-port="2" />
					<edge from-layer="52" from-port="4" to-layer="56" to-port="1" />
					<edge from-layer="52" from-port="4" to-layer="55" to-port="0" />
					<edge from-layer="53" from-port="0" to-layer="54" to-port="1" />
					<edge from-layer="54" from-port="2" to-layer="55" to-port="1" />
					<edge from-layer="55" from-port="2" to-layer="56" to-port="0" />
					<edge from-layer="56" from-port="2" to-layer="57" to-port="0" />
					<edge from-layer="57" from-port="2" to-layer="58" to-port="1" />
					<edge from-layer="58" from-port="2" to-layer="59" to-port="1" />
					<edge from-layer="59" from-port="2" to-layer="62" to-port="0" />
					<edge from-layer="60" from-port="2" to-layer="62" to-port="1" />
					<edge from-layer="61" from-port="2" to-layer="62" to-port="2" />
					<edge from-layer="62" from-port="4" to-layer="63" to-port="0" />
					<edge from-layer="66" from-port="0" to-layer="67" to-port="1" />
					<edge from-layer="67" from-port="2" to-layer="68" to-port="0" />
				</edges>
				<rt_info />
			</body>
		</layer>
		<layer id="52" name="ShapeOf_330" type="ShapeOf" version="opset3">
			<data output_type="i32" />
			<input>
				<port id="0" precision="FP32">
					<dim>-1</dim>
					<dim>-1</dim>
				</port>
			</input>
			<output>
				<port id="1" precision="I32">
					<dim>2</dim>
				</port>
			</output>
		</layer>
		<layer id="53" name="Constant_331" type="Const" version="opset1">
			<data element_type="i32" shape="1" offset="4" size="4" />
			<rt_info>
				<attribute name="precise" version="0" />
			</rt_info>
			<output>
				<port id="0" precision="I32">
					<dim>1</dim>
				</port>
			</output>
		</layer>
		<layer id="54" name="Constant_332" type="Const" version="opset1">
			<data element_type="i32" shape="1" offset="560" size="4" />
			<rt_info>
				<attribute name="precise" version="0" />
			</rt_info>
			<output>
				<port id="0" precision="I32">
					<dim>1</dim>
				</port>
			</output>
		</layer>
		<layer id="55" name="Slice_333" type="StridedSlice" version="opset1">
			<data begin_mask="0" end_mask="0" new_axis_mask="" shrink_axis_mask="" ellipsis_mask="" />
			<input>
				<port id="0" precision="I32">
					<dim>2</dim>
				</port>
				<port id="1" precision="I32">
					<dim>1</dim>
				</port>
				<port id="2" precision="I32">
					<dim>1</dim>
				</port>
				<port id="3" precision="I32">
					<dim>1</dim>
				</port>
			</input>
			<output>
				<port id="4" precision="I32">
					<dim>1</dim>
				</port>
			</output>
		</layer>
		<layer id="56" name="TensorArrayV2Stack/TensorListStack/element_shape" type="Const" version="opset1">
			<data element_type="i32" shape="2" offset="46587" size="8" />
			<rt_info>
				<attribute name="precise" version="0" />
			</rt_info>
			<output>
				<port id="0" precision="I32">
					<dim>2</dim>
				</port>
			</output>
		</layer>
		<layer id="57" name="Concat_335" type="Concat" version="opset1">
			<data axis="0" />
			<input>
				<port id="0" precision="I32">
					<dim>1</dim>
				</port>
				<port id="1" precision="I32">
					<dim>2</dim>
				</port>
			</input>
			<output>
				<port id="2" precision="I32">
					<dim>3</dim>
				</port>
			</output>
		</layer>
		<layer id="58" name="TensorArrayV2Stack/TensorListStack" type="Reshape" version="opset1">
			<data special_zero="false" />
			<input>
				<port id="0" precision="FP32">
					<dim>-1</dim>
					<dim>-1</dim>
				</port>
				<port id="1" precision="I32">
					<dim>3</dim>
				</port>
			</input>
			<output>
				<port id="2" precision="FP32">
					<dim>-1</dim>
					<dim>-1</dim>
					<dim>50</dim>
				</port>
			</output>
		</layer>
		<layer id="59" name="transpose_1/perm" type="Const" version="opset1">
			<data element_type="i32" shape="3" offset="548" size="12" />
			<output>
				<port id="0" precision="I32">
					<dim>3</dim>
				</port>
			</output>
		</layer>
		<layer id="60" name="transpose_1" type="Transpose" version="opset1">
			<input>
				<port id="0" precision="FP32">
					<dim>-1</dim>
					<dim>-1</dim>
					<dim>50</dim>
				</port>
				<port id="1" precision="I32">
					<dim>3</dim>
				</port>
			</input>
			<output>
				<port id="2" precision="FP32" names="sequential/dropout/Identity:0,sequential/lstm/PartitionedCall:1">
					<dim>-1</dim>
					<dim>-1</dim>
					<dim>50</dim>
				</port>
			</output>
		</layer>
		<layer id="61" name="sequential/flatten/Const" type="Const" version="opset1">
			<data element_type="i64" shape="2" offset="46595" size="16" />
			<rt_info>
				<attribute name="precise" version="0" />
			</rt_info>
			<output>
				<port id="0" precision="I64" names="sequential/flatten/Const:0">
					<dim>2</dim>
				</port>
			</output>
		</layer>
		<layer id="62" name="sequential/flatten/Reshape" type="Reshape" version="opset1">
			<data special_zero="false" />
			<input>
				<port id="0" precision="FP32">
					<dim>-1</dim>
					<dim>-1</dim>
					<dim>50</dim>
				</port>
				<port id="1" precision="I64">
					<dim>2</dim>
				</port>
			</input>
			<output>
				<port id="2" precision="FP32" names="sequential/flatten/Reshape:0">
					<dim>-1</dim>
					<dim>4550</dim>
				</port>
			</output>
		</layer>
		<layer id="63" name="Transpose_2806_compressed" type="Const" version="opset1">
			<data element_type="f16" shape="64, 4550" offset="46611" size="582400" />
			<output>
				<port id="0" precision="FP16">
					<dim>64</dim>
					<dim>4550</dim>
				</port>
			</output>
		</layer>
		<layer id="64" name="Transpose_2806" type="Convert" version="opset1">
			<data destination_type="f32" />
			<rt_info>
				<attribute name="decompression" version="0" />
			</rt_info>
			<input>
				<port id="0" precision="FP16">
					<dim>64</dim>
					<dim>4550</dim>
				</port>
			</input>
			<output>
				<port id="1" precision="FP32">
					<dim>64</dim>
					<dim>4550</dim>
				</port>
			</output>
		</layer>
		<layer id="65" name="sequential/dense/MatMul" type="MatMul" version="opset1">
			<data transpose_a="false" transpose_b="true" />
			<input>
				<port id="0" precision="FP32">
					<dim>-1</dim>
					<dim>4550</dim>
				</port>
				<port id="1" precision="FP32">
					<dim>64</dim>
					<dim>4550</dim>
				</port>
			</input>
			<output>
				<port id="2" precision="FP32" names="sequential/dense/MatMul:0">
					<dim>-1</dim>
					<dim>64</dim>
				</port>
			</output>
		</layer>
		<layer id="66" name="Constant_2918_compressed" type="Const" version="opset1">
			<data element_type="f16" shape="1, 64" offset="629011" size="128" />
			<output>
				<port id="0" precision="FP16">
					<dim>1</dim>
					<dim>64</dim>
				</port>
			</output>
		</layer>
		<layer id="67" name="Constant_2918" type="Convert" version="opset1">
			<data destination_type="f32" />
			<rt_info>
				<attribute name="decompression" version="0" />
			</rt_info>
			<input>
				<port id="0" precision="FP16">
					<dim>1</dim>
					<dim>64</dim>
				</port>
			</input>
			<output>
				<port id="1" precision="FP32">
					<dim>1</dim>
					<dim>64</dim>
				</port>
			</output>
		</layer>
		<layer id="68" name="sequential/dense/BiasAdd" type="Add" version="opset1">
			<data auto_broadcast="numpy" />
			<input>
				<port id="0" precision="FP32">
					<dim>-1</dim>
					<dim>64</dim>
				</port>
				<port id="1" precision="FP32">
					<dim>1</dim>
					<dim>64</dim>
				</port>
			</input>
			<output>
				<port id="2" precision="FP32" names="sequential/dense/BiasAdd:0">
					<dim>-1</dim>
					<dim>64</dim>
				</port>
			</output>
		</layer>
		<layer id="69" name="sequential/dense/Relu" type="ReLU" version="opset1">
			<input>
				<port id="0" precision="FP32">
					<dim>-1</dim>
					<dim>64</dim>
				</port>
			</input>
			<output>
				<port id="1" precision="FP32" names="sequential/dense/Relu:0">
					<dim>-1</dim>
					<dim>64</dim>
				</port>
			</output>
		</layer>
		<layer id="70" name="Transpose_2811_compressed" type="Const" version="opset1">
			<data element_type="f16" shape="15, 64" offset="629139" size="1920" />
			<output>
				<port id="0" precision="FP16">
					<dim>15</dim>
					<dim>64</dim>
				</port>
			</output>
		</layer>
		<layer id="71" name="Transpose_2811" type="Convert" version="opset1">
			<data destination_type="f32" />
			<rt_info>
				<attribute name="decompression" version="0" />
			</rt_info>
			<input>
				<port id="0" precision="FP16">
					<dim>15</dim>
					<dim>64</dim>
				</port>
			</input>
			<output>
				<port id="1" precision="FP32">
					<dim>15</dim>
					<dim>64</dim>
				</port>
			</output>
		</layer>
		<layer id="72" name="sequential/dense_1/MatMul" type="MatMul" version="opset1">
			<data transpose_a="false" transpose_b="true" />
			<input>
				<port id="0" precision="FP32">
					<dim>-1</dim>
					<dim>64</dim>
				</port>
				<port id="1" precision="FP32">
					<dim>15</dim>
					<dim>64</dim>
				</port>
			</input>
			<output>
				<port id="2" precision="FP32" names="sequential/dense_1/MatMul:0">
					<dim>-1</dim>
					<dim>15</dim>
				</port>
			</output>
		</layer>
		<layer id="73" name="Constant_2919_compressed" type="Const" version="opset1">
			<data element_type="f16" shape="1, 15" offset="631059" size="30" />
			<output>
				<port id="0" precision="FP16">
					<dim>1</dim>
					<dim>15</dim>
				</port>
			</output>
		</layer>
		<layer id="74" name="Constant_2919" type="Convert" version="opset1">
			<data destination_type="f32" />
			<rt_info>
				<attribute name="decompression" version="0" />
			</rt_info>
			<input>
				<port id="0" precision="FP16">
					<dim>1</dim>
					<dim>15</dim>
				</port>
			</input>
			<output>
				<port id="1" precision="FP32">
					<dim>1</dim>
					<dim>15</dim>
				</port>
			</output>
		</layer>
		<layer id="75" name="sequential/dense_1/BiasAdd" type="Add" version="opset1">
			<data auto_broadcast="numpy" />
			<input>
				<port id="0" precision="FP32">
					<dim>-1</dim>
					<dim>15</dim>
				</port>
				<port id="1" precision="FP32">
					<dim>1</dim>
					<dim>15</dim>
				</port>
			</input>
			<output>
				<port id="2" precision="FP32" names="sequential/dense_1/BiasAdd:0">
					<dim>-1</dim>
					<dim>15</dim>
				</port>
			</output>
		</layer>
		<layer id="76" name="sequential/dense_1/Softmax" type="SoftMax" version="opset8">
			<data axis="-1" />
			<input>
				<port id="0" precision="FP32">
					<dim>-1</dim>
					<dim>15</dim>
				</port>
			</input>
			<output>
				<port id="1" precision="FP32" names="dense_1">
					<dim>-1</dim>
					<dim>15</dim>
				</port>
			</output>
		</layer>
		<layer id="77" name="dense_1" type="Result" version="opset1">
			<input>
				<port id="0" precision="FP32">
					<dim>-1</dim>
					<dim>15</dim>
				</port>
			</input>
		</layer>
	</layers>
	<edges>
		<edge from-layer="0" from-port="0" to-layer="4" to-port="0" />
		<edge from-layer="1" from-port="0" to-layer="51" to-port="0" />
		<edge from-layer="2" from-port="0" to-layer="26" to-port="0" />
		<edge from-layer="2" from-port="0" to-layer="51" to-port="4" />
		<edge from-layer="3" from-port="0" to-layer="4" to-port="1" />
		<edge from-layer="4" from-port="2" to-layer="6" to-port="0" />
		<edge from-layer="5" from-port="0" to-layer="6" to-port="1" />
		<edge from-layer="6" from-port="2" to-layer="9" to-port="0" />
		<edge from-layer="7" from-port="0" to-layer="8" to-port="0" />
		<edge from-layer="8" from-port="1" to-layer="9" to-port="1" />
		<edge from-layer="9" from-port="2" to-layer="11" to-port="0" />
		<edge from-layer="10" from-port="0" to-layer="11" to-port="1" />
		<edge from-layer="11" from-port="2" to-layer="14" to-port="0" />
		<edge from-layer="12" from-port="0" to-layer="13" to-port="0" />
		<edge from-layer="13" from-port="1" to-layer="14" to-port="1" />
		<edge from-layer="14" from-port="2" to-layer="15" to-port="0" />
		<edge from-layer="15" from-port="1" to-layer="32" to-port="0" />
		<edge from-layer="15" from-port="1" to-layer="17" to-port="0" />
		<edge from-layer="16" from-port="0" to-layer="17" to-port="1" />
		<edge from-layer="16" from-port="0" to-layer="34" to-port="1" />
		<edge from-layer="17" from-port="2" to-layer="44" to-port="0" />
		<edge from-layer="17" from-port="2" to-layer="18" to-port="0" />
		<edge from-layer="18" from-port="1" to-layer="21" to-port="0" />
		<edge from-layer="19" from-port="0" to-layer="21" to-port="1" />
		<edge from-layer="19" from-port="0" to-layer="44" to-port="1" />
		<edge from-layer="20" from-port="0" to-layer="21" to-port="2" />
		<edge from-layer="21" from-port="3" to-layer="25" to-port="0" />
		<edge from-layer="22" from-port="0" to-layer="25" to-port="1" />
		<edge from-layer="23" from-port="0" to-layer="25" to-port="2" />
		<edge from-layer="24" from-port="0" to-layer="25" to-port="3" />
		<edge from-layer="25" from-port="4" to-layer="51" to-port="8" />
		<edge from-layer="25" from-port="4" to-layer="26" to-port="1" />
		<edge from-layer="26" from-port="2" to-layer="51" to-port="1" />
		<edge from-layer="27" from-port="0" to-layer="51" to-port="2" />
		<edge from-layer="28" from-port="0" to-layer="51" to-port="3" />
		<edge from-layer="29" from-port="0" to-layer="51" to-port="5" />
		<edge from-layer="30" from-port="0" to-layer="31" to-port="0" />
		<edge from-layer="31" from-port="1" to-layer="43" to-port="0" />
		<edge from-layer="32" from-port="1" to-layer="34" to-port="0" />
		<edge from-layer="33" from-port="0" to-layer="34" to-port="2" />
		<edge from-layer="34" from-port="3" to-layer="38" to-port="0" />
		<edge from-layer="35" from-port="0" to-layer="38" to-port="1" />
		<edge from-layer="36" from-port="0" to-layer="38" to-port="2" />
		<edge from-layer="37" from-port="0" to-layer="38" to-port="3" />
		<edge from-layer="38" from-port="4" to-layer="40" to-port="0" />
		<edge from-layer="39" from-port="0" to-layer="40" to-port="1" />
		<edge from-layer="40" from-port="2" to-layer="42" to-port="0" />
		<edge from-layer="41" from-port="0" to-layer="42" to-port="1" />
		<edge from-layer="42" from-port="2" to-layer="43" to-port="1" />
		<edge from-layer="43" from-port="2" to-layer="51" to-port="6" />
		<edge from-layer="43" from-port="2" to-layer="51" to-port="7" />
		<edge from-layer="44" from-port="2" to-layer="51" to-port="9" />
		<edge from-layer="45" from-port="0" to-layer="46" to-port="0" />
		<edge from-layer="46" from-port="1" to-layer="51" to-port="10" />
		<edge from-layer="47" from-port="0" to-layer="48" to-port="0" />
		<edge from-layer="48" from-port="1" to-layer="51" to-port="11" />
		<edge from-layer="49" from-port="0" to-layer="50" to-port="0" />
		<edge from-layer="50" from-port="1" to-layer="51" to-port="12" />
		<edge from-layer="51" from-port="13" to-layer="52" to-port="0" />
		<edge from-layer="51" from-port="13" to-layer="58" to-port="0" />
		<edge from-layer="52" from-port="1" to-layer="55" to-port="0" />
		<edge from-layer="53" from-port="0" to-layer="55" to-port="1" />
		<edge from-layer="54" from-port="0" to-layer="55" to-port="2" />
		<edge from-layer="54" from-port="0" to-layer="55" to-port="3" />
		<edge from-layer="55" from-port="4" to-layer="57" to-port="0" />
		<edge from-layer="56" from-port="0" to-layer="57" to-port="1" />
		<edge from-layer="57" from-port="2" to-layer="58" to-port="1" />
		<edge from-layer="58" from-port="2" to-layer="60" to-port="0" />
		<edge from-layer="59" from-port="0" to-layer="60" to-port="1" />
		<edge from-layer="60" from-port="2" to-layer="62" to-port="0" />
		<edge from-layer="61" from-port="0" to-layer="62" to-port="1" />
		<edge from-layer="62" from-port="2" to-layer="65" to-port="0" />
		<edge from-layer="63" from-port="0" to-layer="64" to-port="0" />
		<edge from-layer="64" from-port="1" to-layer="65" to-port="1" />
		<edge from-layer="65" from-port="2" to-layer="68" to-port="0" />
		<edge from-layer="66" from-port="0" to-layer="67" to-port="0" />
		<edge from-layer="67" from-port="1" to-layer="68" to-port="1" />
		<edge from-layer="68" from-port="2" to-layer="69" to-port="0" />
		<edge from-layer="69" from-port="1" to-layer="72" to-port="0" />
		<edge from-layer="70" from-port="0" to-layer="71" to-port="0" />
		<edge from-layer="71" from-port="1" to-layer="72" to-port="1" />
		<edge from-layer="72" from-port="2" to-layer="75" to-port="0" />
		<edge from-layer="73" from-port="0" to-layer="74" to-port="0" />
		<edge from-layer="74" from-port="1" to-layer="75" to-port="1" />
		<edge from-layer="75" from-port="2" to-layer="76" to-port="0" />
		<edge from-layer="76" from-port="1" to-layer="77" to-port="0" />
	</edges>
	<rt_info>
		<MO_version value="2024.0.0-14509-34caeefd078-releases/2024/0" />
		<Runtime_version value="2024.0.0-14509-34caeefd078-releases/2024/0" />
		<conversion_parameters>
			<is_python_api_used value="False" />
			<saved_model_dir value="DIR" />
		</conversion_parameters>
		<legacy_frontend value="False" />
	</rt_info>
</net>
