<?xml version="1.0"?>
<net name="TensorFlow_Frontend_IR" version="11">
	<layers>
		<layer id="0" name="conv1d_input" type="Parameter" version="opset1">
			<data shape="?,93,1" element_type="f32" />
			<output>
				<port id="0" precision="FP32" names="conv1d_input">
					<dim>-1</dim>
					<dim>93</dim>
					<dim>1</dim>
				</port>
			</output>
		</layer>
		<layer id="1" name="Constant_836" type="Const" version="opset1">
			<data element_type="i32" shape="" offset="0" size="4" />
			<output>
				<port id="0" precision="I32" />
			</output>
		</layer>
		<layer id="2" name="time" type="Const" version="opset1">
			<data element_type="i32" shape="" offset="4" size="4" />
			<output>
				<port id="0" precision="I32" />
			</output>
		</layer>
		<layer id="3" name="Constant_285" type="Const" version="opset1">
			<data element_type="i32" shape="" offset="0" size="4" />
			<output>
				<port id="0" precision="I32" />
			</output>
		</layer>
		<layer id="4" name="time0" type="Const" version="opset1">
			<data element_type="i32" shape="" offset="4" size="4" />
			<output>
				<port id="0" precision="I32" />
			</output>
		</layer>
		<layer id="5" name="Constant_5197" type="Const" version="opset1">
			<data element_type="i64" shape="3" offset="8" size="24" />
			<output>
				<port id="0" precision="I64">
					<dim>3</dim>
				</port>
			</output>
		</layer>
		<layer id="6" name="Transpose_5198" type="Transpose" version="opset1">
			<input>
				<port id="0" precision="FP32">
					<dim>-1</dim>
					<dim>93</dim>
					<dim>1</dim>
				</port>
				<port id="1" precision="I64">
					<dim>3</dim>
				</port>
			</input>
			<output>
				<port id="2" precision="FP32">
					<dim>-1</dim>
					<dim>1</dim>
					<dim>93</dim>
				</port>
			</output>
		</layer>
		<layer id="7" name="Constant_5199" type="Const" version="opset1">
			<data element_type="i32" shape="1" offset="32" size="4" />
			<output>
				<port id="0" precision="I32">
					<dim>1</dim>
				</port>
			</output>
		</layer>
		<layer id="8" name="Transpose_50" type="Unsqueeze" version="opset1">
			<input>
				<port id="0" precision="FP32">
					<dim>-1</dim>
					<dim>1</dim>
					<dim>93</dim>
				</port>
				<port id="1" precision="I32">
					<dim>1</dim>
				</port>
			</input>
			<output>
				<port id="2" precision="FP32" names="sequential/conv1d/Conv1D/ExpandDims:0">
					<dim>-1</dim>
					<dim>1</dim>
					<dim>1</dim>
					<dim>93</dim>
				</port>
			</output>
		</layer>
		<layer id="9" name="Transpose_52_compressed" type="Const" version="opset1">
			<data element_type="f16" shape="64, 1, 1, 3" offset="36" size="384" />
			<output>
				<port id="0" precision="FP16">
					<dim>64</dim>
					<dim>1</dim>
					<dim>1</dim>
					<dim>3</dim>
				</port>
			</output>
		</layer>
		<layer id="10" name="Transpose_52" type="Convert" version="opset1">
			<data destination_type="f32" />
			<rt_info>
				<attribute name="decompression" version="0" />
			</rt_info>
			<input>
				<port id="0" precision="FP16">
					<dim>64</dim>
					<dim>1</dim>
					<dim>1</dim>
					<dim>3</dim>
				</port>
			</input>
			<output>
				<port id="1" precision="FP32">
					<dim>64</dim>
					<dim>1</dim>
					<dim>1</dim>
					<dim>3</dim>
				</port>
			</output>
		</layer>
		<layer id="11" name="Convolution_53" type="Convolution" version="opset1">
			<data strides="1, 1" dilations="1, 1" pads_begin="0, 0" pads_end="0, 0" auto_pad="valid" />
			<input>
				<port id="0" precision="FP32">
					<dim>-1</dim>
					<dim>1</dim>
					<dim>1</dim>
					<dim>93</dim>
				</port>
				<port id="1" precision="FP32">
					<dim>64</dim>
					<dim>1</dim>
					<dim>1</dim>
					<dim>3</dim>
				</port>
			</input>
			<output>
				<port id="2" precision="FP32">
					<dim>-1</dim>
					<dim>64</dim>
					<dim>1</dim>
					<dim>91</dim>
				</port>
			</output>
		</layer>
		<layer id="12" name="Constant_4407" type="Const" version="opset1">
			<data element_type="i32" shape="1" offset="32" size="4" />
			<output>
				<port id="0" precision="I32">
					<dim>1</dim>
				</port>
			</output>
		</layer>
		<layer id="13" name="Transpose_4409" type="Squeeze" version="opset1">
			<input>
				<port id="0" precision="FP32">
					<dim>-1</dim>
					<dim>64</dim>
					<dim>1</dim>
					<dim>91</dim>
				</port>
				<port id="1" precision="I32">
					<dim>1</dim>
				</port>
			</input>
			<output>
				<port id="2" precision="FP32">
					<dim>-1</dim>
					<dim>64</dim>
					<dim>91</dim>
				</port>
			</output>
		</layer>
		<layer id="14" name="Transpose_4413_compressed" type="Const" version="opset1">
			<data element_type="f16" shape="1, 64, 1" offset="420" size="128" />
			<output>
				<port id="0" precision="FP16">
					<dim>1</dim>
					<dim>64</dim>
					<dim>1</dim>
				</port>
			</output>
		</layer>
		<layer id="15" name="Transpose_4413" type="Convert" version="opset1">
			<data destination_type="f32" />
			<rt_info>
				<attribute name="decompression" version="0" />
			</rt_info>
			<input>
				<port id="0" precision="FP16">
					<dim>1</dim>
					<dim>64</dim>
					<dim>1</dim>
				</port>
			</input>
			<output>
				<port id="1" precision="FP32">
					<dim>1</dim>
					<dim>64</dim>
					<dim>1</dim>
				</port>
			</output>
		</layer>
		<layer id="16" name="Transpose_4415" type="Add" version="opset1">
			<data auto_broadcast="numpy" />
			<input>
				<port id="0" precision="FP32">
					<dim>-1</dim>
					<dim>64</dim>
					<dim>91</dim>
				</port>
				<port id="1" precision="FP32">
					<dim>1</dim>
					<dim>64</dim>
					<dim>1</dim>
				</port>
			</input>
			<output>
				<port id="2" precision="FP32">
					<dim>-1</dim>
					<dim>64</dim>
					<dim>91</dim>
				</port>
			</output>
		</layer>
		<layer id="17" name="Transpose_4417" type="ReLU" version="opset1">
			<input>
				<port id="0" precision="FP32">
					<dim>-1</dim>
					<dim>64</dim>
					<dim>91</dim>
				</port>
			</input>
			<output>
				<port id="1" precision="FP32">
					<dim>-1</dim>
					<dim>64</dim>
					<dim>91</dim>
				</port>
			</output>
		</layer>
		<layer id="18" name="Constant_4416" type="Const" version="opset1">
			<data element_type="i64" shape="3" offset="8" size="24" />
			<rt_info>
				<attribute name="precise" version="0" />
			</rt_info>
			<output>
				<port id="0" precision="I64">
					<dim>3</dim>
				</port>
			</output>
		</layer>
		<layer id="19" name="sequential/conv1d/Relu" type="Transpose" version="opset1">
			<input>
				<port id="0" precision="FP32">
					<dim>-1</dim>
					<dim>64</dim>
					<dim>91</dim>
				</port>
				<port id="1" precision="I64">
					<dim>3</dim>
				</port>
			</input>
			<output>
				<port id="2" precision="FP32" names="sequential/conv1d/Relu:0">
					<dim>-1</dim>
					<dim>91</dim>
					<dim>64</dim>
				</port>
			</output>
		</layer>
		<layer id="20" name="Gather_4419" type="ShapeOf" version="opset3">
			<data output_type="i32" />
			<input>
				<port id="0" precision="FP32">
					<dim>-1</dim>
					<dim>91</dim>
					<dim>64</dim>
				</port>
			</input>
			<output>
				<port id="1" precision="I32">
					<dim>3</dim>
				</port>
			</output>
		</layer>
		<layer id="21" name="transpose/perm" type="Const" version="opset1">
			<data element_type="i32" shape="3" offset="548" size="12" />
			<output>
				<port id="0" precision="I32">
					<dim>3</dim>
				</port>
			</output>
		</layer>
		<layer id="22" name="Constant_4418" type="Const" version="opset1">
			<data element_type="i32" shape="" offset="4" size="4" />
			<output>
				<port id="0" precision="I32" />
			</output>
		</layer>
		<layer id="23" name="Shape" type="Gather" version="opset8">
			<data batch_dims="0" />
			<input>
				<port id="0" precision="I32">
					<dim>3</dim>
				</port>
				<port id="1" precision="I32">
					<dim>3</dim>
				</port>
				<port id="2" precision="I32" />
			</input>
			<output>
				<port id="3" precision="I32">
					<dim>3</dim>
				</port>
			</output>
		</layer>
		<layer id="24" name="strided_slice/stack" type="Const" version="opset1">
			<data element_type="i32" shape="1" offset="4" size="4" />
			<rt_info>
				<attribute name="precise" version="0" />
			</rt_info>
			<output>
				<port id="0" precision="I32">
					<dim>1</dim>
				</port>
			</output>
		</layer>
		<layer id="25" name="strided_slice/stack_1" type="Const" version="opset1">
			<data element_type="i32" shape="1" offset="560" size="4" />
			<rt_info>
				<attribute name="precise" version="0" />
			</rt_info>
			<output>
				<port id="0" precision="I32">
					<dim>1</dim>
				</port>
			</output>
		</layer>
		<layer id="26" name="strided_slice/stack_2" type="Const" version="opset1">
			<data element_type="i32" shape="1" offset="560" size="4" />
			<rt_info>
				<attribute name="precise" version="0" />
			</rt_info>
			<output>
				<port id="0" precision="I32">
					<dim>1</dim>
				</port>
			</output>
		</layer>
		<layer id="27" name="strided_slice" type="StridedSlice" version="opset1">
			<data begin_mask="0" end_mask="0" new_axis_mask="0" shrink_axis_mask="1" ellipsis_mask="0" />
			<input>
				<port id="0" precision="I32">
					<dim>3</dim>
				</port>
				<port id="1" precision="I32">
					<dim>1</dim>
				</port>
				<port id="2" precision="I32">
					<dim>1</dim>
				</port>
				<port id="3" precision="I32">
					<dim>1</dim>
				</port>
			</input>
			<output>
				<port id="4" precision="I32" />
			</output>
		</layer>
		<layer id="28" name="while/Less" type="Less" version="opset1">
			<data auto_broadcast="numpy" />
			<input>
				<port id="0" precision="I32" />
				<port id="1" precision="I32" />
			</input>
			<output>
				<port id="2" precision="BOOL" />
			</output>
		</layer>
		<layer id="29" name="while/loop_counter" type="Const" version="opset1">
			<data element_type="i32" shape="" offset="4" size="4" />
			<output>
				<port id="0" precision="I32" />
			</output>
		</layer>
		<layer id="30" name="while/maximum_iterations" type="Const" version="opset1">
			<data element_type="i32" shape="" offset="0" size="4" />
			<output>
				<port id="0" precision="I32" />
			</output>
		</layer>
		<layer id="31" name="TensorArrayV2_1" type="Const" version="opset1">
			<data element_type="f32" shape="0, 0" offset="564" size="1" />
			<output>
				<port id="0" precision="FP32">
					<dim>0</dim>
					<dim>0</dim>
				</port>
			</output>
		</layer>
		<layer id="32" name="sequential/gru/zeros/Const_compressed" type="Const" version="opset1">
			<data element_type="f16" shape="" offset="565" size="2" />
			<output>
				<port id="0" precision="FP16" />
			</output>
		</layer>
		<layer id="33" name="sequential/gru/zeros/Const" type="Convert" version="opset1">
			<data destination_type="f32" />
			<rt_info>
				<attribute name="decompression" version="0" />
			</rt_info>
			<input>
				<port id="0" precision="FP16" />
			</input>
			<output>
				<port id="1" precision="FP32" names="sequential/gru/zeros/Const:0" />
			</output>
		</layer>
		<layer id="34" name="Gather_4421" type="ShapeOf" version="opset3">
			<data output_type="i32" />
			<input>
				<port id="0" precision="FP32">
					<dim>-1</dim>
					<dim>64</dim>
					<dim>91</dim>
				</port>
			</input>
			<output>
				<port id="1" precision="I32">
					<dim>3</dim>
				</port>
			</output>
		</layer>
		<layer id="35" name="Constant_4420" type="Const" version="opset1">
			<data element_type="i32" shape="" offset="4" size="4" />
			<rt_info>
				<attribute name="precise" version="0" />
			</rt_info>
			<output>
				<port id="0" precision="I32" />
			</output>
		</layer>
		<layer id="36" name="sequential/gru/Shape" type="Gather" version="opset8">
			<data batch_dims="0" />
			<input>
				<port id="0" precision="I32">
					<dim>3</dim>
				</port>
				<port id="1" precision="I64">
					<dim>3</dim>
				</port>
				<port id="2" precision="I32" />
			</input>
			<output>
				<port id="3" precision="I32" names="sequential/gru/Shape:0">
					<dim>3</dim>
				</port>
			</output>
		</layer>
		<layer id="37" name="sequential/gru/strided_slice/stack" type="Const" version="opset1">
			<data element_type="i32" shape="1" offset="4" size="4" />
			<rt_info>
				<attribute name="precise" version="0" />
			</rt_info>
			<output>
				<port id="0" precision="I32" names="sequential/gru/strided_slice/stack:0">
					<dim>1</dim>
				</port>
			</output>
		</layer>
		<layer id="38" name="sequential/gru/strided_slice/stack_1" type="Const" version="opset1">
			<data element_type="i32" shape="1" offset="560" size="4" />
			<rt_info>
				<attribute name="precise" version="0" />
			</rt_info>
			<output>
				<port id="0" precision="I32" names="sequential/gru/strided_slice/stack_1:0">
					<dim>1</dim>
				</port>
			</output>
		</layer>
		<layer id="39" name="sequential/gru/strided_slice/stack_2" type="Const" version="opset1">
			<data element_type="i32" shape="1" offset="560" size="4" />
			<rt_info>
				<attribute name="precise" version="0" />
			</rt_info>
			<output>
				<port id="0" precision="I32" names="sequential/gru/strided_slice/stack_2:0">
					<dim>1</dim>
				</port>
			</output>
		</layer>
		<layer id="40" name="sequential/gru/strided_slice" type="StridedSlice" version="opset1">
			<data begin_mask="0" end_mask="0" new_axis_mask="0" shrink_axis_mask="1" ellipsis_mask="0" />
			<input>
				<port id="0" precision="I32">
					<dim>3</dim>
				</port>
				<port id="1" precision="I32">
					<dim>1</dim>
				</port>
				<port id="2" precision="I32">
					<dim>1</dim>
				</port>
				<port id="3" precision="I32">
					<dim>1</dim>
				</port>
			</input>
			<output>
				<port id="4" precision="I32" names="sequential/gru/strided_slice:0" />
			</output>
		</layer>
		<layer id="41" name="Constant_62" type="Const" version="opset1">
			<data element_type="i64" shape="" offset="567" size="8" />
			<rt_info>
				<attribute name="precise" version="0" />
			</rt_info>
			<output>
				<port id="0" precision="I64" />
			</output>
		</layer>
		<layer id="42" name="Unsqueeze_63" type="Unsqueeze" version="opset1">
			<input>
				<port id="0" precision="I32" />
				<port id="1" precision="I64" />
			</input>
			<output>
				<port id="2" precision="I32">
					<dim>1</dim>
				</port>
			</output>
		</layer>
		<layer id="43" name="Unsqueeze_64" type="Const" version="opset1">
			<data element_type="i32" shape="1" offset="575" size="4" />
			<rt_info>
				<attribute name="precise" version="0" />
			</rt_info>
			<output>
				<port id="0" precision="I32">
					<dim>1</dim>
				</port>
			</output>
		</layer>
		<layer id="44" name="sequential/gru/zeros/packed" type="Concat" version="opset1">
			<data axis="0" />
			<input>
				<port id="0" precision="I32">
					<dim>1</dim>
				</port>
				<port id="1" precision="I32">
					<dim>1</dim>
				</port>
			</input>
			<output>
				<port id="2" precision="I32" names="sequential/gru/zeros/packed:0">
					<dim>2</dim>
				</port>
			</output>
		</layer>
		<layer id="45" name="sequential/gru/zeros" type="Broadcast" version="opset3">
			<data mode="numpy" />
			<input>
				<port id="0" precision="FP32" />
				<port id="1" precision="I32">
					<dim>2</dim>
				</port>
			</input>
			<output>
				<port id="2" precision="FP32" names="sequential/gru/zeros:0">
					<dim>-1</dim>
					<dim>50</dim>
				</port>
			</output>
		</layer>
		<layer id="46" name="transpose" type="Transpose" version="opset1">
			<input>
				<port id="0" precision="FP32">
					<dim>-1</dim>
					<dim>91</dim>
					<dim>64</dim>
				</port>
				<port id="1" precision="I32">
					<dim>3</dim>
				</port>
			</input>
			<output>
				<port id="2" precision="FP32">
					<dim>91</dim>
					<dim>-1</dim>
					<dim>64</dim>
				</port>
			</output>
		</layer>
		<layer id="47" name="gru/gru_cell/kernel_compressed" type="Const" version="opset1">
			<data element_type="f16" shape="64, 150" offset="579" size="19200" />
			<output>
				<port id="0" precision="FP16">
					<dim>64</dim>
					<dim>150</dim>
				</port>
			</output>
		</layer>
		<layer id="48" name="gru/gru_cell/kernel" type="Convert" version="opset1">
			<data destination_type="f32" />
			<rt_info>
				<attribute name="decompression" version="0" />
			</rt_info>
			<input>
				<port id="0" precision="FP16">
					<dim>64</dim>
					<dim>150</dim>
				</port>
			</input>
			<output>
				<port id="1" precision="FP32" names="gru/gru_cell/kernel:0">
					<dim>64</dim>
					<dim>150</dim>
				</port>
			</output>
		</layer>
		<layer id="49" name="Squeeze_80_compressed" type="Const" version="opset1">
			<data element_type="f16" shape="150" offset="19779" size="300" />
			<output>
				<port id="0" precision="FP16">
					<dim>150</dim>
				</port>
			</output>
		</layer>
		<layer id="50" name="Squeeze_80" type="Convert" version="opset1">
			<data destination_type="f32" />
			<rt_info>
				<attribute name="decompression" version="0" />
			</rt_info>
			<input>
				<port id="0" precision="FP16">
					<dim>150</dim>
				</port>
			</input>
			<output>
				<port id="1" precision="FP32">
					<dim>150</dim>
				</port>
			</output>
		</layer>
		<layer id="51" name="gru/gru_cell/recurrent_kernel_compressed" type="Const" version="opset1">
			<data element_type="f16" shape="50, 150" offset="20079" size="15000" />
			<output>
				<port id="0" precision="FP16">
					<dim>50</dim>
					<dim>150</dim>
				</port>
			</output>
		</layer>
		<layer id="52" name="gru/gru_cell/recurrent_kernel" type="Convert" version="opset1">
			<data destination_type="f32" />
			<rt_info>
				<attribute name="decompression" version="0" />
			</rt_info>
			<input>
				<port id="0" precision="FP16">
					<dim>50</dim>
					<dim>150</dim>
				</port>
			</input>
			<output>
				<port id="1" precision="FP32" names="gru/gru_cell/recurrent_kernel:0">
					<dim>50</dim>
					<dim>150</dim>
				</port>
			</output>
		</layer>
		<layer id="53" name="Squeeze_81_compressed" type="Const" version="opset1">
			<data element_type="f16" shape="150" offset="35079" size="300" />
			<output>
				<port id="0" precision="FP16">
					<dim>150</dim>
				</port>
			</output>
		</layer>
		<layer id="54" name="Squeeze_81" type="Convert" version="opset1">
			<data destination_type="f32" />
			<rt_info>
				<attribute name="decompression" version="0" />
			</rt_info>
			<input>
				<port id="0" precision="FP16">
					<dim>150</dim>
				</port>
			</input>
			<output>
				<port id="1" precision="FP32">
					<dim>150</dim>
				</port>
			</output>
		</layer>
		<layer id="55" name="while" type="Loop" version="opset5">
			<port_map>
				<input external_port_id="2" internal_layer_id="10" />
				<input external_port_id="3" internal_layer_id="9" />
				<input external_port_id="4" internal_layer_id="8" />
				<input external_port_id="5" internal_layer_id="7" />
				<input external_port_id="6" internal_layer_id="6" />
				<input external_port_id="7" internal_layer_id="5" />
				<input external_port_id="8" internal_layer_id="4" />
				<input external_port_id="9" internal_layer_id="3" />
				<input external_port_id="10" internal_layer_id="2" />
				<input external_port_id="11" internal_layer_id="1" />
				<input external_port_id="12" internal_layer_id="0" />
				<output external_port_id="13" internal_layer_id="69" />
				<output external_port_id="-1" internal_layer_id="14" purpose="execution_condition" />
			</port_map>
			<back_edges>
				<edge from-layer="74" to-layer="10" />
				<edge from-layer="71" to-layer="9" />
				<edge from-layer="70" to-layer="8" />
				<edge from-layer="69" to-layer="7" />
				<edge from-layer="45" to-layer="6" />
				<edge from-layer="20" to-layer="5" />
				<edge from-layer="19" to-layer="4" />
				<edge from-layer="18" to-layer="3" />
				<edge from-layer="17" to-layer="2" />
				<edge from-layer="16" to-layer="1" />
				<edge from-layer="15" to-layer="0" />
			</back_edges>
			<input>
				<port id="0" precision="I32" />
				<port id="1" precision="BOOL" />
				<port id="2" precision="I32" />
				<port id="3" precision="I32" />
				<port id="4" precision="I32" />
				<port id="5" precision="FP32">
					<dim>0</dim>
					<dim>0</dim>
				</port>
				<port id="6" precision="FP32">
					<dim>-1</dim>
					<dim>50</dim>
				</port>
				<port id="7" precision="I32" />
				<port id="8" precision="FP32">
					<dim>91</dim>
					<dim>-1</dim>
					<dim>64</dim>
				</port>
				<port id="9" precision="FP32">
					<dim>64</dim>
					<dim>150</dim>
				</port>
				<port id="10" precision="FP32">
					<dim>150</dim>
				</port>
				<port id="11" precision="FP32">
					<dim>50</dim>
					<dim>150</dim>
				</port>
				<port id="12" precision="FP32">
					<dim>150</dim>
				</port>
			</input>
			<output>
				<port id="13" precision="FP32">
					<dim>-1</dim>
					<dim>-1</dim>
				</port>
			</output>
			<body>
				<layers>
					<layer id="10" name="while_while_loop_counter" type="Parameter" version="opset1">
						<data shape="" element_type="i32" />
						<rt_info>
							<attribute name="fused_names" version="0" value="while_while_loop_counter" />
						</rt_info>
						<output>
							<port id="0" precision="I32" />
						</output>
					</layer>
					<layer id="9" name="while_while_maximum_iterations" type="Parameter" version="opset1">
						<data shape="" element_type="i32" />
						<rt_info>
							<attribute name="fused_names" version="0" value="while_while_maximum_iterations" />
						</rt_info>
						<output>
							<port id="0" precision="I32" />
						</output>
					</layer>
					<layer id="8" name="while_placeholder" type="Parameter" version="opset1">
						<data shape="" element_type="i32" />
						<rt_info>
							<attribute name="fused_names" version="0" value="while_placeholder" />
						</rt_info>
						<output>
							<port id="0" precision="I32" />
						</output>
					</layer>
					<layer id="7" name="while_placeholder_1" type="Parameter" version="opset1">
						<data shape="0,0" element_type="f32" />
						<rt_info>
							<attribute name="fused_names" version="0" value="while_placeholder_1" />
						</rt_info>
						<output>
							<port id="0" precision="FP32">
								<dim>0</dim>
								<dim>0</dim>
							</port>
						</output>
					</layer>
					<layer id="6" name="while_placeholder_2" type="Parameter" version="opset1">
						<data shape="?,50" element_type="f32" />
						<rt_info>
							<attribute name="fused_names" version="0" value="while_placeholder_2" />
						</rt_info>
						<output>
							<port id="0" precision="FP32">
								<dim>-1</dim>
								<dim>50</dim>
							</port>
						</output>
					</layer>
					<layer id="5" name="while_strided_slice_0" type="Parameter" version="opset1">
						<data shape="" element_type="i32" />
						<rt_info>
							<attribute name="fused_names" version="0" value="while_strided_slice_0" />
						</rt_info>
						<output>
							<port id="0" precision="I32" />
						</output>
					</layer>
					<layer id="4" name="while_tensorarrayv2read_tensorlistgetitem_tensorarrayunstack_tensorlistfromtensor_0" type="Parameter" version="opset1">
						<data shape="91,?,64" element_type="f32" />
						<rt_info>
							<attribute name="fused_names" version="0" value="while_tensorarrayv2read_tensorlistgetitem_tensorarrayunstack_tensorlistfromtensor_0" />
						</rt_info>
						<output>
							<port id="0" precision="FP32">
								<dim>91</dim>
								<dim>-1</dim>
								<dim>64</dim>
							</port>
						</output>
					</layer>
					<layer id="3" name="while_matmul_kernel_0" type="Parameter" version="opset1">
						<data shape="64,150" element_type="f32" />
						<rt_info>
							<attribute name="fused_names" version="0" value="while_matmul_kernel_0" />
						</rt_info>
						<output>
							<port id="0" precision="FP32">
								<dim>64</dim>
								<dim>150</dim>
							</port>
						</output>
					</layer>
					<layer id="2" name="while_biasadd_unstack_0" type="Parameter" version="opset1">
						<data shape="150" element_type="f32" />
						<rt_info>
							<attribute name="fused_names" version="0" value="while_biasadd_unstack_0" />
						</rt_info>
						<output>
							<port id="0" precision="FP32">
								<dim>150</dim>
							</port>
						</output>
					</layer>
					<layer id="1" name="while_matmul_1_recurrent_kernel_0" type="Parameter" version="opset1">
						<data shape="50,150" element_type="f32" />
						<rt_info>
							<attribute name="fused_names" version="0" value="while_matmul_1_recurrent_kernel_0" />
						</rt_info>
						<output>
							<port id="0" precision="FP32">
								<dim>50</dim>
								<dim>150</dim>
							</port>
						</output>
					</layer>
					<layer id="0" name="while_biasadd_1_unstack_0" type="Parameter" version="opset1">
						<data shape="150" element_type="f32" />
						<rt_info>
							<attribute name="fused_names" version="0" value="while_biasadd_1_unstack_0" />
						</rt_info>
						<output>
							<port id="0" precision="FP32">
								<dim>150</dim>
							</port>
						</output>
					</layer>
					<layer id="11" name="while/add_4/y" type="Const" version="opset1">
						<data element_type="i32" shape="" offset="560" size="4" />
						<rt_info>
							<attribute name="fused_names" version="0" value="while/add_4/y" />
						</rt_info>
						<output>
							<port id="0" precision="I32" />
						</output>
					</layer>
					<layer id="12" name="while/add_4" type="Add" version="opset1">
						<data auto_broadcast="numpy" />
						<rt_info>
							<attribute name="fused_names" version="0" value="while/add_4" />
						</rt_info>
						<input>
							<port id="0" precision="I32" />
							<port id="1" precision="I32" />
						</input>
						<output>
							<port id="2" precision="I32" />
						</output>
					</layer>
					<layer id="13" name="while/Less" type="Less" version="opset1">
						<data auto_broadcast="numpy" />
						<rt_info>
							<attribute name="fused_names" version="0" value="while/Less" />
						</rt_info>
						<input>
							<port id="0" precision="I32" />
							<port id="1" precision="I32" />
						</input>
						<output>
							<port id="2" precision="BOOL" />
						</output>
					</layer>
					<layer id="21" name="Squeeze_143" type="Squeeze" version="opset1">
						<rt_info>
							<attribute name="fused_names" version="0" value="Squeeze_143, Squeeze_164" />
						</rt_info>
						<input>
							<port id="0" precision="I32" />
						</input>
						<output>
							<port id="1" precision="I32" />
						</output>
					</layer>
					<layer id="22" name="Constant_144" type="Const" version="opset1">
						<data element_type="i32" shape="1" offset="4" size="4" />
						<rt_info>
							<attribute name="fused_names" version="0" value="Constant_144" />
						</rt_info>
						<output>
							<port id="0" precision="I32">
								<dim>1</dim>
							</port>
						</output>
					</layer>
					<layer id="23" name="Gather_145" type="Gather" version="opset8">
						<data batch_dims="0" />
						<rt_info>
							<attribute name="fused_names" version="0" value="Gather_145, while/TensorArrayV2Read/TensorListGetItem" />
						</rt_info>
						<input>
							<port id="0" precision="FP32">
								<dim>91</dim>
								<dim>-1</dim>
								<dim>64</dim>
							</port>
							<port id="1" precision="I32" />
							<port id="2" precision="I32">
								<dim>1</dim>
							</port>
						</input>
						<output>
							<port id="3" precision="FP32">
								<dim>-1</dim>
								<dim>64</dim>
							</port>
						</output>
					</layer>
					<layer id="24" name="while/MatMul" type="MatMul" version="opset1">
						<data transpose_a="false" transpose_b="false" />
						<rt_info>
							<attribute name="fused_names" version="0" value="while/MatMul" />
						</rt_info>
						<input>
							<port id="0" precision="FP32">
								<dim>-1</dim>
								<dim>64</dim>
							</port>
							<port id="1" precision="FP32">
								<dim>64</dim>
								<dim>150</dim>
							</port>
						</input>
						<output>
							<port id="2" precision="FP32">
								<dim>-1</dim>
								<dim>150</dim>
							</port>
						</output>
					</layer>
					<layer id="25" name="while/BiasAdd" type="Add" version="opset1">
						<data auto_broadcast="numpy" />
						<rt_info>
							<attribute name="fused_names" version="0" value="while/BiasAdd" />
						</rt_info>
						<input>
							<port id="0" precision="FP32">
								<dim>-1</dim>
								<dim>150</dim>
							</port>
							<port id="1" precision="FP32">
								<dim>150</dim>
							</port>
						</input>
						<output>
							<port id="2" precision="FP32">
								<dim>-1</dim>
								<dim>150</dim>
							</port>
						</output>
					</layer>
					<layer id="26" name="while/split/split_dim" type="Const" version="opset1">
						<data element_type="i32" shape="" offset="560" size="4" />
						<rt_info>
							<attribute name="fused_names" version="0" value="while/split/split_dim" />
						</rt_info>
						<output>
							<port id="0" precision="I32" />
						</output>
					</layer>
					<layer id="27" name="while/split" type="Split" version="opset1">
						<data num_splits="3" />
						<rt_info>
							<attribute name="fused_names" version="0" value="while/split" />
						</rt_info>
						<input>
							<port id="0" precision="FP32">
								<dim>-1</dim>
								<dim>150</dim>
							</port>
							<port id="1" precision="I32" />
						</input>
						<output>
							<port id="2" precision="FP32">
								<dim>-1</dim>
								<dim>50</dim>
							</port>
							<port id="3" precision="FP32">
								<dim>-1</dim>
								<dim>50</dim>
							</port>
							<port id="4" precision="FP32">
								<dim>-1</dim>
								<dim>50</dim>
							</port>
						</output>
					</layer>
					<layer id="28" name="while/MatMul_1" type="MatMul" version="opset1">
						<data transpose_a="false" transpose_b="false" />
						<rt_info>
							<attribute name="fused_names" version="0" value="while/MatMul_1" />
						</rt_info>
						<input>
							<port id="0" precision="FP32">
								<dim>-1</dim>
								<dim>50</dim>
							</port>
							<port id="1" precision="FP32">
								<dim>50</dim>
								<dim>150</dim>
							</port>
						</input>
						<output>
							<port id="2" precision="FP32">
								<dim>-1</dim>
								<dim>150</dim>
							</port>
						</output>
					</layer>
					<layer id="29" name="while/BiasAdd_1" type="Add" version="opset1">
						<data auto_broadcast="numpy" />
						<rt_info>
							<attribute name="fused_names" version="0" value="while/BiasAdd_1" />
						</rt_info>
						<input>
							<port id="0" precision="FP32">
								<dim>-1</dim>
								<dim>150</dim>
							</port>
							<port id="1" precision="FP32">
								<dim>150</dim>
							</port>
						</input>
						<output>
							<port id="2" precision="FP32">
								<dim>-1</dim>
								<dim>150</dim>
							</port>
						</output>
					</layer>
					<layer id="30" name="while/split_1/split_dim" type="Const" version="opset1">
						<data element_type="i32" shape="" offset="560" size="4" />
						<rt_info>
							<attribute name="fused_names" version="0" value="while/split_1/split_dim" />
						</rt_info>
						<output>
							<port id="0" precision="I32" />
						</output>
					</layer>
					<layer id="31" name="while/split_1" type="Split" version="opset1">
						<data num_splits="3" />
						<rt_info>
							<attribute name="fused_names" version="0" value="while/split_1" />
						</rt_info>
						<input>
							<port id="0" precision="FP32">
								<dim>-1</dim>
								<dim>150</dim>
							</port>
							<port id="1" precision="I32" />
						</input>
						<output>
							<port id="2" precision="FP32">
								<dim>-1</dim>
								<dim>50</dim>
							</port>
							<port id="3" precision="FP32">
								<dim>-1</dim>
								<dim>50</dim>
							</port>
							<port id="4" precision="FP32">
								<dim>-1</dim>
								<dim>50</dim>
							</port>
						</output>
					</layer>
					<layer id="32" name="while/add" type="Add" version="opset1">
						<data auto_broadcast="numpy" />
						<rt_info>
							<attribute name="fused_names" version="0" value="while/add" />
						</rt_info>
						<input>
							<port id="0" precision="FP32">
								<dim>-1</dim>
								<dim>50</dim>
							</port>
							<port id="1" precision="FP32">
								<dim>-1</dim>
								<dim>50</dim>
							</port>
						</input>
						<output>
							<port id="2" precision="FP32">
								<dim>-1</dim>
								<dim>50</dim>
							</port>
						</output>
					</layer>
					<layer id="33" name="while/Sigmoid" type="Sigmoid" version="opset1">
						<rt_info>
							<attribute name="fused_names" version="0" value="while/Sigmoid" />
						</rt_info>
						<input>
							<port id="0" precision="FP32">
								<dim>-1</dim>
								<dim>50</dim>
							</port>
						</input>
						<output>
							<port id="1" precision="FP32">
								<dim>-1</dim>
								<dim>50</dim>
							</port>
						</output>
					</layer>
					<layer id="34" name="while/mul_1" type="Multiply" version="opset1">
						<data auto_broadcast="numpy" />
						<rt_info>
							<attribute name="fused_names" version="0" value="while/mul_1" />
						</rt_info>
						<input>
							<port id="0" precision="FP32">
								<dim>-1</dim>
								<dim>50</dim>
							</port>
							<port id="1" precision="FP32">
								<dim>-1</dim>
								<dim>50</dim>
							</port>
						</input>
						<output>
							<port id="2" precision="FP32">
								<dim>-1</dim>
								<dim>50</dim>
							</port>
						</output>
					</layer>
					<layer id="35" name="Constant_8404_compressed" type="Const" version="opset1">
						<data element_type="f16" shape="1, 1" offset="35379" size="2" />
						<rt_info>
							<attribute name="fused_names" version="0" value="while/sub/x" />
						</rt_info>
						<output>
							<port id="0" precision="FP16">
								<dim>1</dim>
								<dim>1</dim>
							</port>
						</output>
					</layer>
					<layer id="36" name="Constant_8404" type="Convert" version="opset1">
						<data destination_type="f32" />
						<rt_info>
							<attribute name="decompression" version="0" />
							<attribute name="fused_names" version="0" value="while/sub/x" />
						</rt_info>
						<input>
							<port id="0" precision="FP16">
								<dim>1</dim>
								<dim>1</dim>
							</port>
						</input>
						<output>
							<port id="1" precision="FP32">
								<dim>1</dim>
								<dim>1</dim>
							</port>
						</output>
					</layer>
					<layer id="37" name="while/sub" type="Subtract" version="opset1">
						<data auto_broadcast="numpy" />
						<rt_info>
							<attribute name="fused_names" version="0" value="while/sub" />
						</rt_info>
						<input>
							<port id="0" precision="FP32">
								<dim>1</dim>
								<dim>1</dim>
							</port>
							<port id="1" precision="FP32">
								<dim>-1</dim>
								<dim>50</dim>
							</port>
						</input>
						<output>
							<port id="2" precision="FP32">
								<dim>-1</dim>
								<dim>50</dim>
							</port>
						</output>
					</layer>
					<layer id="38" name="while/add_1" type="Add" version="opset1">
						<data auto_broadcast="numpy" />
						<rt_info>
							<attribute name="fused_names" version="0" value="while/add_1" />
						</rt_info>
						<input>
							<port id="0" precision="FP32">
								<dim>-1</dim>
								<dim>50</dim>
							</port>
							<port id="1" precision="FP32">
								<dim>-1</dim>
								<dim>50</dim>
							</port>
						</input>
						<output>
							<port id="2" precision="FP32">
								<dim>-1</dim>
								<dim>50</dim>
							</port>
						</output>
					</layer>
					<layer id="39" name="while/Sigmoid_1" type="Sigmoid" version="opset1">
						<rt_info>
							<attribute name="fused_names" version="0" value="while/Sigmoid_1" />
						</rt_info>
						<input>
							<port id="0" precision="FP32">
								<dim>-1</dim>
								<dim>50</dim>
							</port>
						</input>
						<output>
							<port id="1" precision="FP32">
								<dim>-1</dim>
								<dim>50</dim>
							</port>
						</output>
					</layer>
					<layer id="40" name="while/mul" type="Multiply" version="opset1">
						<data auto_broadcast="numpy" />
						<rt_info>
							<attribute name="fused_names" version="0" value="while/mul" />
						</rt_info>
						<input>
							<port id="0" precision="FP32">
								<dim>-1</dim>
								<dim>50</dim>
							</port>
							<port id="1" precision="FP32">
								<dim>-1</dim>
								<dim>50</dim>
							</port>
						</input>
						<output>
							<port id="2" precision="FP32">
								<dim>-1</dim>
								<dim>50</dim>
							</port>
						</output>
					</layer>
					<layer id="41" name="while/add_2" type="Add" version="opset1">
						<data auto_broadcast="numpy" />
						<rt_info>
							<attribute name="fused_names" version="0" value="while/add_2" />
						</rt_info>
						<input>
							<port id="0" precision="FP32">
								<dim>-1</dim>
								<dim>50</dim>
							</port>
							<port id="1" precision="FP32">
								<dim>-1</dim>
								<dim>50</dim>
							</port>
						</input>
						<output>
							<port id="2" precision="FP32">
								<dim>-1</dim>
								<dim>50</dim>
							</port>
						</output>
					</layer>
					<layer id="42" name="while/Tanh" type="Tanh" version="opset1">
						<rt_info>
							<attribute name="fused_names" version="0" value="while/Tanh" />
						</rt_info>
						<input>
							<port id="0" precision="FP32">
								<dim>-1</dim>
								<dim>50</dim>
							</port>
						</input>
						<output>
							<port id="1" precision="FP32">
								<dim>-1</dim>
								<dim>50</dim>
							</port>
						</output>
					</layer>
					<layer id="43" name="while/mul_2" type="Multiply" version="opset1">
						<data auto_broadcast="numpy" />
						<rt_info>
							<attribute name="fused_names" version="0" value="while/mul_2" />
						</rt_info>
						<input>
							<port id="0" precision="FP32">
								<dim>-1</dim>
								<dim>50</dim>
							</port>
							<port id="1" precision="FP32">
								<dim>-1</dim>
								<dim>50</dim>
							</port>
						</input>
						<output>
							<port id="2" precision="FP32">
								<dim>-1</dim>
								<dim>50</dim>
							</port>
						</output>
					</layer>
					<layer id="44" name="while/add_3" type="Add" version="opset1">
						<data auto_broadcast="numpy" />
						<rt_info>
							<attribute name="fused_names" version="0" value="while/add_3" />
						</rt_info>
						<input>
							<port id="0" precision="FP32">
								<dim>-1</dim>
								<dim>50</dim>
							</port>
							<port id="1" precision="FP32">
								<dim>-1</dim>
								<dim>50</dim>
							</port>
						</input>
						<output>
							<port id="2" precision="FP32">
								<dim>-1</dim>
								<dim>50</dim>
							</port>
						</output>
					</layer>
					<layer id="46" name="Constant_168" type="Const" version="opset1">
						<data element_type="i32" shape="1" offset="0" size="4" />
						<rt_info>
							<attribute name="fused_names" version="0" value="Constant_168" />
							<attribute name="precise" version="0" />
						</rt_info>
						<output>
							<port id="0" precision="I32">
								<dim>1</dim>
							</port>
						</output>
					</layer>
					<layer id="47" name="Constant_5943" type="Const" version="opset1">
						<data element_type="i64" shape="1" offset="35381" size="8" />
						<rt_info>
							<attribute name="fused_names" version="0" value="Constant_5943" />
							<attribute name="precise" version="0" />
						</rt_info>
						<output>
							<port id="0" precision="I64">
								<dim>1</dim>
							</port>
						</output>
					</layer>
					<layer id="48" name="Reshape_166" type="Reshape" version="opset1">
						<data special_zero="false" />
						<rt_info>
							<attribute name="fused_names" version="0" value="Reshape_166" />
						</rt_info>
						<input>
							<port id="0" precision="FP32">
								<dim>-1</dim>
								<dim>50</dim>
							</port>
							<port id="1" precision="I64">
								<dim>1</dim>
							</port>
						</input>
						<output>
							<port id="2" precision="FP32">
								<dim>-1</dim>
							</port>
						</output>
					</layer>
					<layer id="49" name="ShapeOf_167" type="ShapeOf" version="opset3">
						<data output_type="i32" />
						<rt_info>
							<attribute name="fused_names" version="0" value="ShapeOf_167" />
						</rt_info>
						<input>
							<port id="0" precision="FP32">
								<dim>-1</dim>
							</port>
						</input>
						<output>
							<port id="1" precision="I32">
								<dim>1</dim>
							</port>
						</output>
					</layer>
					<layer id="50" name="Concat_169" type="Concat" version="opset1">
						<data axis="0" />
						<rt_info>
							<attribute name="fused_names" version="0" value="Concat_169, Constant_168, ShapeOf_167" />
						</rt_info>
						<input>
							<port id="0" precision="I32">
								<dim>1</dim>
							</port>
							<port id="1" precision="I32">
								<dim>1</dim>
							</port>
						</input>
						<output>
							<port id="2" precision="I32">
								<dim>2</dim>
							</port>
						</output>
					</layer>
					<layer id="51" name="Reshape_170" type="Reshape" version="opset1">
						<data special_zero="false" />
						<rt_info>
							<attribute name="fused_names" version="0" value="Reshape_170" />
						</rt_info>
						<input>
							<port id="0" precision="FP32">
								<dim>0</dim>
								<dim>0</dim>
							</port>
							<port id="1" precision="I32">
								<dim>2</dim>
							</port>
						</input>
						<output>
							<port id="2" precision="FP32">
								<dim>-1</dim>
								<dim>-1</dim>
							</port>
						</output>
					</layer>
					<layer id="52" name="ConvertLike_173" type="ConvertLike" version="opset1">
						<rt_info>
							<attribute name="fused_names" version="0" value="ConvertLike_173" />
						</rt_info>
						<input>
							<port id="0" precision="FP32">
								<dim>-1</dim>
								<dim>-1</dim>
							</port>
							<port id="1" precision="FP32">
								<dim>-1</dim>
							</port>
						</input>
						<output>
							<port id="2" precision="FP32">
								<dim>-1</dim>
								<dim>-1</dim>
							</port>
						</output>
					</layer>
					<layer id="53" name="Constant_183_compressed" type="Const" version="opset1">
						<data element_type="f16" shape="" offset="565" size="2" />
						<rt_info>
							<attribute name="fused_names" version="0" value="Constant_183" />
						</rt_info>
						<output>
							<port id="0" precision="FP16" />
						</output>
					</layer>
					<layer id="54" name="Constant_183" type="Convert" version="opset1">
						<data destination_type="f32" />
						<rt_info>
							<attribute name="decompression" version="0" />
							<attribute name="fused_names" version="0" value="Constant_183" />
						</rt_info>
						<input>
							<port id="0" precision="FP16" />
						</input>
						<output>
							<port id="1" precision="FP32" />
						</output>
					</layer>
					<layer id="55" name="ShapeOf_174" type="ShapeOf" version="opset3">
						<data output_type="i32" />
						<rt_info>
							<attribute name="fused_names" version="0" value="ShapeOf_174" />
						</rt_info>
						<input>
							<port id="0" precision="FP32">
								<dim>-1</dim>
								<dim>-1</dim>
							</port>
						</input>
						<output>
							<port id="1" precision="I32">
								<dim>2</dim>
							</port>
						</output>
					</layer>
					<layer id="56" name="Constant_175" type="Const" version="opset1">
						<data element_type="i32" shape="1" offset="4" size="4" />
						<rt_info>
							<attribute name="fused_names" version="0" value="Slice_177" />
							<attribute name="precise" version="0" />
						</rt_info>
						<output>
							<port id="0" precision="I32">
								<dim>1</dim>
							</port>
						</output>
					</layer>
					<layer id="57" name="Constant_176" type="Const" version="opset1">
						<data element_type="i32" shape="1" offset="560" size="4" />
						<rt_info>
							<attribute name="fused_names" version="0" value="Slice_177" />
							<attribute name="precise" version="0" />
						</rt_info>
						<output>
							<port id="0" precision="I32">
								<dim>1</dim>
							</port>
						</output>
					</layer>
					<layer id="58" name="Slice_177" type="StridedSlice" version="opset1">
						<data begin_mask="0" end_mask="0" new_axis_mask="" shrink_axis_mask="" ellipsis_mask="" />
						<rt_info>
							<attribute name="fused_names" version="0" value="Slice_177" />
						</rt_info>
						<input>
							<port id="0" precision="I32">
								<dim>2</dim>
							</port>
							<port id="1" precision="I32">
								<dim>1</dim>
							</port>
							<port id="2" precision="I32">
								<dim>1</dim>
							</port>
							<port id="3" precision="I32">
								<dim>1</dim>
							</port>
						</input>
						<output>
							<port id="4" precision="I32">
								<dim>1</dim>
							</port>
						</output>
					</layer>
					<layer id="59" name="Constant_179" type="Const" version="opset1">
						<data element_type="i32" shape="1" offset="560" size="4" />
						<rt_info>
							<attribute name="fused_names" version="0" value="Constant_179" />
							<attribute name="precise" version="0" />
						</rt_info>
						<output>
							<port id="0" precision="I32">
								<dim>1</dim>
							</port>
						</output>
					</layer>
					<layer id="60" name="Add_180" type="Add" version="opset1">
						<data auto_broadcast="numpy" />
						<rt_info>
							<attribute name="fused_names" version="0" value="Add_180" />
						</rt_info>
						<input>
							<port id="0" precision="I32" />
							<port id="1" precision="I32">
								<dim>1</dim>
							</port>
						</input>
						<output>
							<port id="2" precision="I32">
								<dim>1</dim>
							</port>
						</output>
					</layer>
					<layer id="61" name="Maximum_181" type="Maximum" version="opset1">
						<data auto_broadcast="numpy" />
						<rt_info>
							<attribute name="fused_names" version="0" value="Maximum_181" />
						</rt_info>
						<input>
							<port id="0" precision="I32">
								<dim>1</dim>
							</port>
							<port id="1" precision="I32">
								<dim>1</dim>
							</port>
						</input>
						<output>
							<port id="2" precision="I32">
								<dim>1</dim>
							</port>
						</output>
					</layer>
					<layer id="62" name="Subtract_182" type="Subtract" version="opset1">
						<data auto_broadcast="numpy" />
						<rt_info>
							<attribute name="fused_names" version="0" value="Subtract_182" />
						</rt_info>
						<input>
							<port id="0" precision="I32">
								<dim>1</dim>
							</port>
							<port id="1" precision="I32">
								<dim>1</dim>
							</port>
						</input>
						<output>
							<port id="2" precision="I32">
								<dim>1</dim>
							</port>
						</output>
					</layer>
					<layer id="63" name="Concat_184" type="Concat" version="opset1">
						<data axis="0" />
						<rt_info>
							<attribute name="fused_names" version="0" value="Concat_184" />
						</rt_info>
						<input>
							<port id="0" precision="I32">
								<dim>1</dim>
							</port>
							<port id="1" precision="I32">
								<dim>1</dim>
							</port>
						</input>
						<output>
							<port id="2" precision="I32">
								<dim>2</dim>
							</port>
						</output>
					</layer>
					<layer id="64" name="Broadcast_185" type="Broadcast" version="opset3">
						<data mode="numpy" />
						<rt_info>
							<attribute name="fused_names" version="0" value="Broadcast_185" />
						</rt_info>
						<input>
							<port id="0" precision="FP32" />
							<port id="1" precision="I32">
								<dim>2</dim>
							</port>
						</input>
						<output>
							<port id="2" precision="FP32">
								<dim>-1</dim>
								<dim>-1</dim>
							</port>
						</output>
					</layer>
					<layer id="65" name="Concat_186" type="Concat" version="opset1">
						<data axis="0" />
						<rt_info>
							<attribute name="fused_names" version="0" value="Concat_186" />
						</rt_info>
						<input>
							<port id="0" precision="FP32">
								<dim>-1</dim>
								<dim>-1</dim>
							</port>
							<port id="1" precision="FP32">
								<dim>-1</dim>
								<dim>-1</dim>
							</port>
						</input>
						<output>
							<port id="2" precision="FP32">
								<dim>-1</dim>
								<dim>-1</dim>
							</port>
						</output>
					</layer>
					<layer id="66" name="Unsqueeze_187" type="Unsqueeze" version="opset1">
						<rt_info>
							<attribute name="fused_names" version="0" value="Unsqueeze_187" />
						</rt_info>
						<input>
							<port id="0" precision="I32" />
							<port id="1" precision="I32">
								<dim>1</dim>
							</port>
						</input>
						<output>
							<port id="2" precision="I32">
								<dim>1</dim>
							</port>
						</output>
					</layer>
					<layer id="67" name="Unsqueeze_188" type="Unsqueeze" version="opset1">
						<rt_info>
							<attribute name="fused_names" version="0" value="Unsqueeze_188" />
						</rt_info>
						<input>
							<port id="0" precision="FP32">
								<dim>-1</dim>
							</port>
							<port id="1" precision="I32">
								<dim>1</dim>
							</port>
						</input>
						<output>
							<port id="2" precision="FP32">
								<dim>1</dim>
								<dim>-1</dim>
							</port>
						</output>
					</layer>
					<layer id="68" name="while/TensorArrayV2Write/TensorListSetItem" type="ScatterUpdate" version="opset3">
						<rt_info>
							<attribute name="fused_names" version="0" value="while/TensorArrayV2Write/TensorListSetItem" />
						</rt_info>
						<input>
							<port id="0" precision="FP32">
								<dim>-1</dim>
								<dim>-1</dim>
							</port>
							<port id="1" precision="I32">
								<dim>1</dim>
							</port>
							<port id="2" precision="FP32">
								<dim>1</dim>
								<dim>-1</dim>
							</port>
							<port id="3" precision="I32">
								<dim>1</dim>
							</port>
						</input>
						<output>
							<port id="4" precision="FP32">
								<dim>-1</dim>
								<dim>-1</dim>
							</port>
						</output>
					</layer>
					<layer id="72" name="while/add_5/y" type="Const" version="opset1">
						<data element_type="i32" shape="" offset="560" size="4" />
						<rt_info>
							<attribute name="fused_names" version="0" value="while/add_5/y" />
						</rt_info>
						<output>
							<port id="0" precision="I32" />
						</output>
					</layer>
					<layer id="73" name="while/add_5" type="Add" version="opset1">
						<data auto_broadcast="numpy" />
						<rt_info>
							<attribute name="fused_names" version="0" value="while/add_5" />
						</rt_info>
						<input>
							<port id="0" precision="I32" />
							<port id="1" precision="I32" />
						</input>
						<output>
							<port id="2" precision="I32" />
						</output>
					</layer>
					<layer id="74" name="while_identity" type="Result" version="opset1">
						<rt_info>
							<attribute name="fused_names" version="0" value="while_identity" />
						</rt_info>
						<input>
							<port id="0" precision="I32" />
						</input>
					</layer>
					<layer id="71" name="while_identity_1" type="Result" version="opset1">
						<rt_info>
							<attribute name="fused_names" version="0" value="while_identity_1" />
						</rt_info>
						<input>
							<port id="0" precision="I32" />
						</input>
					</layer>
					<layer id="70" name="while_identity_2" type="Result" version="opset1">
						<rt_info>
							<attribute name="fused_names" version="0" value="while_identity_2" />
						</rt_info>
						<input>
							<port id="0" precision="I32" />
						</input>
					</layer>
					<layer id="69" name="while_identity_3" type="Result" version="opset1">
						<rt_info>
							<attribute name="fused_names" version="0" value="while_identity_3" />
						</rt_info>
						<input>
							<port id="0" precision="FP32">
								<dim>-1</dim>
								<dim>-1</dim>
							</port>
						</input>
					</layer>
					<layer id="45" name="while_identity_4" type="Result" version="opset1">
						<rt_info>
							<attribute name="fused_names" version="0" value="while_identity_4" />
						</rt_info>
						<input>
							<port id="0" precision="FP32">
								<dim>-1</dim>
								<dim>50</dim>
							</port>
						</input>
					</layer>
					<layer id="20" name="while_strided_slice" type="Result" version="opset1">
						<rt_info>
							<attribute name="fused_names" version="0" value="while_strided_slice" />
						</rt_info>
						<input>
							<port id="0" precision="I32" />
						</input>
					</layer>
					<layer id="19" name="while_tensorarrayv2read_tensorlistgetitem_tensorarrayunstack_tensorlistfromtensor" type="Result" version="opset1">
						<rt_info>
							<attribute name="fused_names" version="0" value="while_tensorarrayv2read_tensorlistgetitem_tensorarrayunstack_tensorlistfromtensor" />
						</rt_info>
						<input>
							<port id="0" precision="FP32">
								<dim>91</dim>
								<dim>-1</dim>
								<dim>64</dim>
							</port>
						</input>
					</layer>
					<layer id="18" name="while_matmul_kernel" type="Result" version="opset1">
						<rt_info>
							<attribute name="fused_names" version="0" value="while_matmul_kernel" />
						</rt_info>
						<input>
							<port id="0" precision="FP32">
								<dim>64</dim>
								<dim>150</dim>
							</port>
						</input>
					</layer>
					<layer id="17" name="while_biasadd_unstack" type="Result" version="opset1">
						<rt_info>
							<attribute name="fused_names" version="0" value="while_biasadd_unstack" />
						</rt_info>
						<input>
							<port id="0" precision="FP32">
								<dim>150</dim>
							</port>
						</input>
					</layer>
					<layer id="16" name="while_matmul_1_recurrent_kernel" type="Result" version="opset1">
						<rt_info>
							<attribute name="fused_names" version="0" value="while_matmul_1_recurrent_kernel" />
						</rt_info>
						<input>
							<port id="0" precision="FP32">
								<dim>50</dim>
								<dim>150</dim>
							</port>
						</input>
					</layer>
					<layer id="15" name="while_biasadd_1_unstack" type="Result" version="opset1">
						<rt_info>
							<attribute name="fused_names" version="0" value="while_biasadd_1_unstack" />
						</rt_info>
						<input>
							<port id="0" precision="FP32">
								<dim>150</dim>
							</port>
						</input>
					</layer>
					<layer id="14" name="while_identity0" type="Result" version="opset1">
						<rt_info>
							<attribute name="fused_names" version="0" value="while_identity" />
						</rt_info>
						<input>
							<port id="0" precision="BOOL" />
						</input>
					</layer>
				</layers>
				<edges>
					<edge from-layer="0" from-port="0" to-layer="15" to-port="0" />
					<edge from-layer="0" from-port="0" to-layer="29" to-port="1" />
					<edge from-layer="1" from-port="0" to-layer="28" to-port="1" />
					<edge from-layer="1" from-port="0" to-layer="16" to-port="0" />
					<edge from-layer="2" from-port="0" to-layer="25" to-port="1" />
					<edge from-layer="2" from-port="0" to-layer="17" to-port="0" />
					<edge from-layer="3" from-port="0" to-layer="24" to-port="1" />
					<edge from-layer="3" from-port="0" to-layer="18" to-port="0" />
					<edge from-layer="4" from-port="0" to-layer="19" to-port="0" />
					<edge from-layer="4" from-port="0" to-layer="23" to-port="0" />
					<edge from-layer="5" from-port="0" to-layer="13" to-port="1" />
					<edge from-layer="5" from-port="0" to-layer="20" to-port="0" />
					<edge from-layer="6" from-port="0" to-layer="28" to-port="0" />
					<edge from-layer="6" from-port="0" to-layer="34" to-port="1" />
					<edge from-layer="7" from-port="0" to-layer="51" to-port="0" />
					<edge from-layer="8" from-port="0" to-layer="12" to-port="0" />
					<edge from-layer="8" from-port="0" to-layer="21" to-port="0" />
					<edge from-layer="9" from-port="0" to-layer="71" to-port="0" />
					<edge from-layer="10" from-port="0" to-layer="73" to-port="0" />
					<edge from-layer="11" from-port="0" to-layer="12" to-port="1" />
					<edge from-layer="12" from-port="2" to-layer="13" to-port="0" />
					<edge from-layer="12" from-port="2" to-layer="70" to-port="0" />
					<edge from-layer="13" from-port="2" to-layer="14" to-port="0" />
					<edge from-layer="21" from-port="1" to-layer="23" to-port="1" />
					<edge from-layer="21" from-port="1" to-layer="60" to-port="0" />
					<edge from-layer="21" from-port="1" to-layer="66" to-port="0" />
					<edge from-layer="22" from-port="0" to-layer="23" to-port="2" />
					<edge from-layer="23" from-port="3" to-layer="24" to-port="0" />
					<edge from-layer="24" from-port="2" to-layer="25" to-port="0" />
					<edge from-layer="25" from-port="2" to-layer="27" to-port="0" />
					<edge from-layer="26" from-port="0" to-layer="27" to-port="1" />
					<edge from-layer="27" from-port="2" to-layer="32" to-port="0" />
					<edge from-layer="27" from-port="3" to-layer="38" to-port="0" />
					<edge from-layer="27" from-port="4" to-layer="41" to-port="0" />
					<edge from-layer="28" from-port="2" to-layer="29" to-port="0" />
					<edge from-layer="29" from-port="2" to-layer="31" to-port="0" />
					<edge from-layer="30" from-port="0" to-layer="31" to-port="1" />
					<edge from-layer="31" from-port="3" to-layer="38" to-port="1" />
					<edge from-layer="31" from-port="4" to-layer="40" to-port="1" />
					<edge from-layer="31" from-port="2" to-layer="32" to-port="1" />
					<edge from-layer="32" from-port="2" to-layer="33" to-port="0" />
					<edge from-layer="33" from-port="1" to-layer="37" to-port="1" />
					<edge from-layer="33" from-port="1" to-layer="34" to-port="0" />
					<edge from-layer="34" from-port="2" to-layer="44" to-port="0" />
					<edge from-layer="35" from-port="0" to-layer="36" to-port="0" />
					<edge from-layer="36" from-port="1" to-layer="37" to-port="0" />
					<edge from-layer="37" from-port="2" to-layer="43" to-port="0" />
					<edge from-layer="38" from-port="2" to-layer="39" to-port="0" />
					<edge from-layer="39" from-port="1" to-layer="40" to-port="0" />
					<edge from-layer="40" from-port="2" to-layer="41" to-port="1" />
					<edge from-layer="41" from-port="2" to-layer="42" to-port="0" />
					<edge from-layer="42" from-port="1" to-layer="43" to-port="1" />
					<edge from-layer="43" from-port="2" to-layer="44" to-port="1" />
					<edge from-layer="44" from-port="2" to-layer="45" to-port="0" />
					<edge from-layer="44" from-port="2" to-layer="48" to-port="0" />
					<edge from-layer="46" from-port="0" to-layer="50" to-port="0" />
					<edge from-layer="47" from-port="0" to-layer="48" to-port="1" />
					<edge from-layer="48" from-port="2" to-layer="52" to-port="1" />
					<edge from-layer="48" from-port="2" to-layer="67" to-port="0" />
					<edge from-layer="48" from-port="2" to-layer="49" to-port="0" />
					<edge from-layer="49" from-port="1" to-layer="63" to-port="1" />
					<edge from-layer="49" from-port="1" to-layer="50" to-port="1" />
					<edge from-layer="50" from-port="2" to-layer="51" to-port="1" />
					<edge from-layer="51" from-port="2" to-layer="52" to-port="0" />
					<edge from-layer="52" from-port="2" to-layer="55" to-port="0" />
					<edge from-layer="52" from-port="2" to-layer="65" to-port="0" />
					<edge from-layer="53" from-port="0" to-layer="54" to-port="0" />
					<edge from-layer="54" from-port="1" to-layer="64" to-port="0" />
					<edge from-layer="55" from-port="1" to-layer="58" to-port="0" />
					<edge from-layer="56" from-port="0" to-layer="68" to-port="3" />
					<edge from-layer="56" from-port="0" to-layer="67" to-port="1" />
					<edge from-layer="56" from-port="0" to-layer="66" to-port="1" />
					<edge from-layer="56" from-port="0" to-layer="58" to-port="1" />
					<edge from-layer="57" from-port="0" to-layer="58" to-port="2" />
					<edge from-layer="57" from-port="0" to-layer="58" to-port="3" />
					<edge from-layer="58" from-port="4" to-layer="62" to-port="1" />
					<edge from-layer="58" from-port="4" to-layer="61" to-port="0" />
					<edge from-layer="59" from-port="0" to-layer="60" to-port="1" />
					<edge from-layer="60" from-port="2" to-layer="61" to-port="1" />
					<edge from-layer="61" from-port="2" to-layer="62" to-port="0" />
					<edge from-layer="62" from-port="2" to-layer="63" to-port="0" />
					<edge from-layer="63" from-port="2" to-layer="64" to-port="1" />
					<edge from-layer="64" from-port="2" to-layer="65" to-port="1" />
					<edge from-layer="65" from-port="2" to-layer="68" to-port="0" />
					<edge from-layer="66" from-port="2" to-layer="68" to-port="1" />
					<edge from-layer="67" from-port="2" to-layer="68" to-port="2" />
					<edge from-layer="68" from-port="4" to-layer="69" to-port="0" />
					<edge from-layer="72" from-port="0" to-layer="73" to-port="1" />
					<edge from-layer="73" from-port="2" to-layer="74" to-port="0" />
				</edges>
				<rt_info />
			</body>
		</layer>
		<layer id="56" name="ShapeOf_339" type="ShapeOf" version="opset3">
			<data output_type="i32" />
			<input>
				<port id="0" precision="FP32">
					<dim>-1</dim>
					<dim>-1</dim>
				</port>
			</input>
			<output>
				<port id="1" precision="I32">
					<dim>2</dim>
				</port>
			</output>
		</layer>
		<layer id="57" name="Constant_340" type="Const" version="opset1">
			<data element_type="i32" shape="1" offset="4" size="4" />
			<rt_info>
				<attribute name="precise" version="0" />
			</rt_info>
			<output>
				<port id="0" precision="I32">
					<dim>1</dim>
				</port>
			</output>
		</layer>
		<layer id="58" name="Constant_341" type="Const" version="opset1">
			<data element_type="i32" shape="1" offset="560" size="4" />
			<rt_info>
				<attribute name="precise" version="0" />
			</rt_info>
			<output>
				<port id="0" precision="I32">
					<dim>1</dim>
				</port>
			</output>
		</layer>
		<layer id="59" name="Slice_342" type="StridedSlice" version="opset1">
			<data begin_mask="0" end_mask="0" new_axis_mask="" shrink_axis_mask="" ellipsis_mask="" />
			<input>
				<port id="0" precision="I32">
					<dim>2</dim>
				</port>
				<port id="1" precision="I32">
					<dim>1</dim>
				</port>
				<port id="2" precision="I32">
					<dim>1</dim>
				</port>
				<port id="3" precision="I32">
					<dim>1</dim>
				</port>
			</input>
			<output>
				<port id="4" precision="I32">
					<dim>1</dim>
				</port>
			</output>
		</layer>
		<layer id="60" name="TensorArrayV2Stack/TensorListStack/element_shape" type="Const" version="opset1">
			<data element_type="i32" shape="2" offset="35389" size="8" />
			<rt_info>
				<attribute name="precise" version="0" />
			</rt_info>
			<output>
				<port id="0" precision="I32">
					<dim>2</dim>
				</port>
			</output>
		</layer>
		<layer id="61" name="Concat_344" type="Concat" version="opset1">
			<data axis="0" />
			<input>
				<port id="0" precision="I32">
					<dim>1</dim>
				</port>
				<port id="1" precision="I32">
					<dim>2</dim>
				</port>
			</input>
			<output>
				<port id="2" precision="I32">
					<dim>3</dim>
				</port>
			</output>
		</layer>
		<layer id="62" name="TensorArrayV2Stack/TensorListStack" type="Reshape" version="opset1">
			<data special_zero="false" />
			<input>
				<port id="0" precision="FP32">
					<dim>-1</dim>
					<dim>-1</dim>
				</port>
				<port id="1" precision="I32">
					<dim>3</dim>
				</port>
			</input>
			<output>
				<port id="2" precision="FP32">
					<dim>-1</dim>
					<dim>-1</dim>
					<dim>50</dim>
				</port>
			</output>
		</layer>
		<layer id="63" name="transpose_1/perm" type="Const" version="opset1">
			<data element_type="i32" shape="3" offset="548" size="12" />
			<rt_info>
				<attribute name="precise" version="0" />
			</rt_info>
			<output>
				<port id="0" precision="I32">
					<dim>3</dim>
				</port>
			</output>
		</layer>
		<layer id="64" name="transpose_1" type="Transpose" version="opset1">
			<input>
				<port id="0" precision="FP32">
					<dim>-1</dim>
					<dim>-1</dim>
					<dim>50</dim>
				</port>
				<port id="1" precision="I32">
					<dim>3</dim>
				</port>
			</input>
			<output>
				<port id="2" precision="FP32" names="sequential/dropout/Identity:0,sequential/gru/PartitionedCall:1">
					<dim>-1</dim>
					<dim>-1</dim>
					<dim>50</dim>
				</port>
			</output>
		</layer>
		<layer id="65" name="Gather_4423" type="ShapeOf" version="opset3">
			<data output_type="i32" />
			<input>
				<port id="0" precision="FP32">
					<dim>-1</dim>
					<dim>-1</dim>
					<dim>50</dim>
				</port>
			</input>
			<output>
				<port id="1" precision="I32">
					<dim>3</dim>
				</port>
			</output>
		</layer>
		<layer id="66" name="transpose/perm0" type="Const" version="opset1">
			<data element_type="i32" shape="3" offset="548" size="12" />
			<output>
				<port id="0" precision="I32">
					<dim>3</dim>
				</port>
			</output>
		</layer>
		<layer id="67" name="Constant_4422" type="Const" version="opset1">
			<data element_type="i32" shape="" offset="4" size="4" />
			<output>
				<port id="0" precision="I32" />
			</output>
		</layer>
		<layer id="68" name="Shape0" type="Gather" version="opset8">
			<data batch_dims="0" />
			<input>
				<port id="0" precision="I32">
					<dim>3</dim>
				</port>
				<port id="1" precision="I32">
					<dim>3</dim>
				</port>
				<port id="2" precision="I32" />
			</input>
			<output>
				<port id="3" precision="I32">
					<dim>3</dim>
				</port>
			</output>
		</layer>
		<layer id="69" name="strided_slice/stack0" type="Const" version="opset1">
			<data element_type="i32" shape="1" offset="4" size="4" />
			<rt_info>
				<attribute name="precise" version="0" />
			</rt_info>
			<output>
				<port id="0" precision="I32">
					<dim>1</dim>
				</port>
			</output>
		</layer>
		<layer id="70" name="strided_slice/stack_10" type="Const" version="opset1">
			<data element_type="i32" shape="1" offset="560" size="4" />
			<rt_info>
				<attribute name="precise" version="0" />
			</rt_info>
			<output>
				<port id="0" precision="I32">
					<dim>1</dim>
				</port>
			</output>
		</layer>
		<layer id="71" name="strided_slice/stack_20" type="Const" version="opset1">
			<data element_type="i32" shape="1" offset="560" size="4" />
			<rt_info>
				<attribute name="precise" version="0" />
			</rt_info>
			<output>
				<port id="0" precision="I32">
					<dim>1</dim>
				</port>
			</output>
		</layer>
		<layer id="72" name="strided_slice0" type="StridedSlice" version="opset1">
			<data begin_mask="0" end_mask="0" new_axis_mask="0" shrink_axis_mask="1" ellipsis_mask="0" />
			<input>
				<port id="0" precision="I32">
					<dim>3</dim>
				</port>
				<port id="1" precision="I32">
					<dim>1</dim>
				</port>
				<port id="2" precision="I32">
					<dim>1</dim>
				</port>
				<port id="3" precision="I32">
					<dim>1</dim>
				</port>
			</input>
			<output>
				<port id="4" precision="I32" />
			</output>
		</layer>
		<layer id="73" name="while/Less0" type="Less" version="opset1">
			<data auto_broadcast="numpy" />
			<input>
				<port id="0" precision="I32" />
				<port id="1" precision="I32" />
			</input>
			<output>
				<port id="2" precision="BOOL" />
			</output>
		</layer>
		<layer id="74" name="while/loop_counter0" type="Const" version="opset1">
			<data element_type="i32" shape="" offset="4" size="4" />
			<output>
				<port id="0" precision="I32" />
			</output>
		</layer>
		<layer id="75" name="while/maximum_iterations0" type="Const" version="opset1">
			<data element_type="i32" shape="" offset="0" size="4" />
			<output>
				<port id="0" precision="I32" />
			</output>
		</layer>
		<layer id="76" name="TensorArrayV2_10" type="Const" version="opset1">
			<data element_type="f32" shape="0, 0" offset="564" size="1" />
			<output>
				<port id="0" precision="FP32">
					<dim>0</dim>
					<dim>0</dim>
				</port>
			</output>
		</layer>
		<layer id="77" name="sequential/gru_1/zeros/Const_compressed" type="Const" version="opset1">
			<data element_type="f16" shape="" offset="565" size="2" />
			<output>
				<port id="0" precision="FP16" />
			</output>
		</layer>
		<layer id="78" name="sequential/gru_1/zeros/Const" type="Convert" version="opset1">
			<data destination_type="f32" />
			<rt_info>
				<attribute name="decompression" version="0" />
			</rt_info>
			<input>
				<port id="0" precision="FP16" />
			</input>
			<output>
				<port id="1" precision="FP32" names="sequential/gru_1/zeros/Const:0" />
			</output>
		</layer>
		<layer id="79" name="Gather_4425" type="ShapeOf" version="opset3">
			<data output_type="i32" />
			<input>
				<port id="0" precision="FP32">
					<dim>-1</dim>
					<dim>-1</dim>
					<dim>50</dim>
				</port>
			</input>
			<output>
				<port id="1" precision="I32">
					<dim>3</dim>
				</port>
			</output>
		</layer>
		<layer id="80" name="Constant_4424" type="Const" version="opset1">
			<data element_type="i32" shape="" offset="4" size="4" />
			<rt_info>
				<attribute name="precise" version="0" />
			</rt_info>
			<output>
				<port id="0" precision="I32" />
			</output>
		</layer>
		<layer id="81" name="sequential/gru_1/Shape" type="Gather" version="opset8">
			<data batch_dims="0" />
			<input>
				<port id="0" precision="I32">
					<dim>3</dim>
				</port>
				<port id="1" precision="I32">
					<dim>3</dim>
				</port>
				<port id="2" precision="I32" />
			</input>
			<output>
				<port id="3" precision="I32" names="sequential/gru_1/Shape:0">
					<dim>3</dim>
				</port>
			</output>
		</layer>
		<layer id="82" name="sequential/gru_1/strided_slice/stack" type="Const" version="opset1">
			<data element_type="i32" shape="1" offset="4" size="4" />
			<rt_info>
				<attribute name="precise" version="0" />
			</rt_info>
			<output>
				<port id="0" precision="I32" names="sequential/gru_1/strided_slice/stack:0">
					<dim>1</dim>
				</port>
			</output>
		</layer>
		<layer id="83" name="sequential/gru_1/strided_slice/stack_1" type="Const" version="opset1">
			<data element_type="i32" shape="1" offset="560" size="4" />
			<rt_info>
				<attribute name="precise" version="0" />
			</rt_info>
			<output>
				<port id="0" precision="I32" names="sequential/gru_1/strided_slice/stack_1:0">
					<dim>1</dim>
				</port>
			</output>
		</layer>
		<layer id="84" name="sequential/gru_1/strided_slice/stack_2" type="Const" version="opset1">
			<data element_type="i32" shape="1" offset="560" size="4" />
			<rt_info>
				<attribute name="precise" version="0" />
			</rt_info>
			<output>
				<port id="0" precision="I32" names="sequential/gru_1/strided_slice/stack_2:0">
					<dim>1</dim>
				</port>
			</output>
		</layer>
		<layer id="85" name="sequential/gru_1/strided_slice" type="StridedSlice" version="opset1">
			<data begin_mask="0" end_mask="0" new_axis_mask="0" shrink_axis_mask="1" ellipsis_mask="0" />
			<input>
				<port id="0" precision="I32">
					<dim>3</dim>
				</port>
				<port id="1" precision="I32">
					<dim>1</dim>
				</port>
				<port id="2" precision="I32">
					<dim>1</dim>
				</port>
				<port id="3" precision="I32">
					<dim>1</dim>
				</port>
			</input>
			<output>
				<port id="4" precision="I32" names="sequential/gru_1/strided_slice:0" />
			</output>
		</layer>
		<layer id="86" name="Constant_478" type="Const" version="opset1">
			<data element_type="i64" shape="" offset="567" size="8" />
			<rt_info>
				<attribute name="precise" version="0" />
			</rt_info>
			<output>
				<port id="0" precision="I64" />
			</output>
		</layer>
		<layer id="87" name="Unsqueeze_479" type="Unsqueeze" version="opset1">
			<input>
				<port id="0" precision="I32" />
				<port id="1" precision="I64" />
			</input>
			<output>
				<port id="2" precision="I32">
					<dim>1</dim>
				</port>
			</output>
		</layer>
		<layer id="88" name="Unsqueeze_480" type="Const" version="opset1">
			<data element_type="i32" shape="1" offset="575" size="4" />
			<rt_info>
				<attribute name="precise" version="0" />
			</rt_info>
			<output>
				<port id="0" precision="I32">
					<dim>1</dim>
				</port>
			</output>
		</layer>
		<layer id="89" name="sequential/gru_1/zeros/packed" type="Concat" version="opset1">
			<data axis="0" />
			<input>
				<port id="0" precision="I32">
					<dim>1</dim>
				</port>
				<port id="1" precision="I32">
					<dim>1</dim>
				</port>
			</input>
			<output>
				<port id="2" precision="I32" names="sequential/gru_1/zeros/packed:0">
					<dim>2</dim>
				</port>
			</output>
		</layer>
		<layer id="90" name="sequential/gru_1/zeros" type="Broadcast" version="opset3">
			<data mode="numpy" />
			<input>
				<port id="0" precision="FP32" />
				<port id="1" precision="I32">
					<dim>2</dim>
				</port>
			</input>
			<output>
				<port id="2" precision="FP32" names="sequential/gru_1/zeros:0">
					<dim>-1</dim>
					<dim>50</dim>
				</port>
			</output>
		</layer>
		<layer id="91" name="transpose0" type="Transpose" version="opset1">
			<input>
				<port id="0" precision="FP32">
					<dim>-1</dim>
					<dim>-1</dim>
					<dim>50</dim>
				</port>
				<port id="1" precision="I32">
					<dim>3</dim>
				</port>
			</input>
			<output>
				<port id="2" precision="FP32">
					<dim>-1</dim>
					<dim>-1</dim>
					<dim>50</dim>
				</port>
			</output>
		</layer>
		<layer id="92" name="gru_1/gru_cell/kernel_compressed" type="Const" version="opset1">
			<data element_type="f16" shape="50, 150" offset="35397" size="15000" />
			<output>
				<port id="0" precision="FP16">
					<dim>50</dim>
					<dim>150</dim>
				</port>
			</output>
		</layer>
		<layer id="93" name="gru_1/gru_cell/kernel" type="Convert" version="opset1">
			<data destination_type="f32" />
			<rt_info>
				<attribute name="decompression" version="0" />
			</rt_info>
			<input>
				<port id="0" precision="FP16">
					<dim>50</dim>
					<dim>150</dim>
				</port>
			</input>
			<output>
				<port id="1" precision="FP32" names="gru_1/gru_cell/kernel:0">
					<dim>50</dim>
					<dim>150</dim>
				</port>
			</output>
		</layer>
		<layer id="94" name="Squeeze_496_compressed" type="Const" version="opset1">
			<data element_type="f16" shape="150" offset="50397" size="300" />
			<output>
				<port id="0" precision="FP16">
					<dim>150</dim>
				</port>
			</output>
		</layer>
		<layer id="95" name="Squeeze_496" type="Convert" version="opset1">
			<data destination_type="f32" />
			<rt_info>
				<attribute name="decompression" version="0" />
			</rt_info>
			<input>
				<port id="0" precision="FP16">
					<dim>150</dim>
				</port>
			</input>
			<output>
				<port id="1" precision="FP32">
					<dim>150</dim>
				</port>
			</output>
		</layer>
		<layer id="96" name="gru_1/gru_cell/recurrent_kernel_compressed" type="Const" version="opset1">
			<data element_type="f16" shape="50, 150" offset="50697" size="15000" />
			<output>
				<port id="0" precision="FP16">
					<dim>50</dim>
					<dim>150</dim>
				</port>
			</output>
		</layer>
		<layer id="97" name="gru_1/gru_cell/recurrent_kernel" type="Convert" version="opset1">
			<data destination_type="f32" />
			<rt_info>
				<attribute name="decompression" version="0" />
			</rt_info>
			<input>
				<port id="0" precision="FP16">
					<dim>50</dim>
					<dim>150</dim>
				</port>
			</input>
			<output>
				<port id="1" precision="FP32" names="gru_1/gru_cell/recurrent_kernel:0">
					<dim>50</dim>
					<dim>150</dim>
				</port>
			</output>
		</layer>
		<layer id="98" name="Squeeze_497_compressed" type="Const" version="opset1">
			<data element_type="f16" shape="150" offset="65697" size="300" />
			<output>
				<port id="0" precision="FP16">
					<dim>150</dim>
				</port>
			</output>
		</layer>
		<layer id="99" name="Squeeze_497" type="Convert" version="opset1">
			<data destination_type="f32" />
			<rt_info>
				<attribute name="decompression" version="0" />
			</rt_info>
			<input>
				<port id="0" precision="FP16">
					<dim>150</dim>
				</port>
			</input>
			<output>
				<port id="1" precision="FP32">
					<dim>150</dim>
				</port>
			</output>
		</layer>
		<layer id="100" name="while0" type="Loop" version="opset5">
			<port_map>
				<input external_port_id="2" internal_layer_id="10" />
				<input external_port_id="3" internal_layer_id="9" />
				<input external_port_id="4" internal_layer_id="8" />
				<input external_port_id="5" internal_layer_id="7" />
				<input external_port_id="6" internal_layer_id="6" />
				<input external_port_id="7" internal_layer_id="5" />
				<input external_port_id="8" internal_layer_id="4" />
				<input external_port_id="9" internal_layer_id="3" />
				<input external_port_id="10" internal_layer_id="2" />
				<input external_port_id="11" internal_layer_id="1" />
				<input external_port_id="12" internal_layer_id="0" />
				<output external_port_id="13" internal_layer_id="68" />
				<output external_port_id="-1" internal_layer_id="14" purpose="execution_condition" />
			</port_map>
			<back_edges>
				<edge from-layer="73" to-layer="10" />
				<edge from-layer="70" to-layer="9" />
				<edge from-layer="69" to-layer="8" />
				<edge from-layer="68" to-layer="7" />
				<edge from-layer="45" to-layer="6" />
				<edge from-layer="20" to-layer="5" />
				<edge from-layer="19" to-layer="4" />
				<edge from-layer="18" to-layer="3" />
				<edge from-layer="17" to-layer="2" />
				<edge from-layer="16" to-layer="1" />
				<edge from-layer="15" to-layer="0" />
			</back_edges>
			<input>
				<port id="0" precision="I32" />
				<port id="1" precision="BOOL" />
				<port id="2" precision="I32" />
				<port id="3" precision="I32" />
				<port id="4" precision="I32" />
				<port id="5" precision="FP32">
					<dim>0</dim>
					<dim>0</dim>
				</port>
				<port id="6" precision="FP32">
					<dim>-1</dim>
					<dim>50</dim>
				</port>
				<port id="7" precision="I32" />
				<port id="8" precision="FP32">
					<dim>-1</dim>
					<dim>-1</dim>
					<dim>50</dim>
				</port>
				<port id="9" precision="FP32">
					<dim>50</dim>
					<dim>150</dim>
				</port>
				<port id="10" precision="FP32">
					<dim>150</dim>
				</port>
				<port id="11" precision="FP32">
					<dim>50</dim>
					<dim>150</dim>
				</port>
				<port id="12" precision="FP32">
					<dim>150</dim>
				</port>
			</input>
			<output>
				<port id="13" precision="FP32">
					<dim>-1</dim>
					<dim>-1</dim>
				</port>
			</output>
			<body>
				<layers>
					<layer id="10" name="while_while_loop_counter" type="Parameter" version="opset1">
						<data shape="" element_type="i32" />
						<rt_info>
							<attribute name="fused_names" version="0" value="while_while_loop_counter" />
						</rt_info>
						<output>
							<port id="0" precision="I32" />
						</output>
					</layer>
					<layer id="9" name="while_while_maximum_iterations" type="Parameter" version="opset1">
						<data shape="" element_type="i32" />
						<rt_info>
							<attribute name="fused_names" version="0" value="while_while_maximum_iterations" />
						</rt_info>
						<output>
							<port id="0" precision="I32" />
						</output>
					</layer>
					<layer id="8" name="while_placeholder" type="Parameter" version="opset1">
						<data shape="" element_type="i32" />
						<rt_info>
							<attribute name="fused_names" version="0" value="while_placeholder" />
						</rt_info>
						<output>
							<port id="0" precision="I32" />
						</output>
					</layer>
					<layer id="7" name="while_placeholder_1" type="Parameter" version="opset1">
						<data shape="0,0" element_type="f32" />
						<rt_info>
							<attribute name="fused_names" version="0" value="while_placeholder_1" />
						</rt_info>
						<output>
							<port id="0" precision="FP32">
								<dim>0</dim>
								<dim>0</dim>
							</port>
						</output>
					</layer>
					<layer id="6" name="while_placeholder_2" type="Parameter" version="opset1">
						<data shape="?,50" element_type="f32" />
						<rt_info>
							<attribute name="fused_names" version="0" value="while_placeholder_2" />
						</rt_info>
						<output>
							<port id="0" precision="FP32">
								<dim>-1</dim>
								<dim>50</dim>
							</port>
						</output>
					</layer>
					<layer id="5" name="while_strided_slice_0" type="Parameter" version="opset1">
						<data shape="" element_type="i32" />
						<rt_info>
							<attribute name="fused_names" version="0" value="while_strided_slice_0" />
						</rt_info>
						<output>
							<port id="0" precision="I32" />
						</output>
					</layer>
					<layer id="4" name="while_tensorarrayv2read_tensorlistgetitem_tensorarrayunstack_tensorlistfromtensor_0" type="Parameter" version="opset1">
						<data shape="?,?,50" element_type="f32" />
						<rt_info>
							<attribute name="fused_names" version="0" value="while_tensorarrayv2read_tensorlistgetitem_tensorarrayunstack_tensorlistfromtensor_0" />
						</rt_info>
						<output>
							<port id="0" precision="FP32">
								<dim>-1</dim>
								<dim>-1</dim>
								<dim>50</dim>
							</port>
						</output>
					</layer>
					<layer id="3" name="while_matmul_kernel_0" type="Parameter" version="opset1">
						<data shape="50,150" element_type="f32" />
						<rt_info>
							<attribute name="fused_names" version="0" value="while_matmul_kernel_0" />
						</rt_info>
						<output>
							<port id="0" precision="FP32">
								<dim>50</dim>
								<dim>150</dim>
							</port>
						</output>
					</layer>
					<layer id="2" name="while_biasadd_unstack_0" type="Parameter" version="opset1">
						<data shape="150" element_type="f32" />
						<rt_info>
							<attribute name="fused_names" version="0" value="while_biasadd_unstack_0" />
						</rt_info>
						<output>
							<port id="0" precision="FP32">
								<dim>150</dim>
							</port>
						</output>
					</layer>
					<layer id="1" name="while_matmul_1_recurrent_kernel_0" type="Parameter" version="opset1">
						<data shape="50,150" element_type="f32" />
						<rt_info>
							<attribute name="fused_names" version="0" value="while_matmul_1_recurrent_kernel_0" />
						</rt_info>
						<output>
							<port id="0" precision="FP32">
								<dim>50</dim>
								<dim>150</dim>
							</port>
						</output>
					</layer>
					<layer id="0" name="while_biasadd_1_unstack_0" type="Parameter" version="opset1">
						<data shape="150" element_type="f32" />
						<rt_info>
							<attribute name="fused_names" version="0" value="while_biasadd_1_unstack_0" />
						</rt_info>
						<output>
							<port id="0" precision="FP32">
								<dim>150</dim>
							</port>
						</output>
					</layer>
					<layer id="11" name="while/add_4/y" type="Const" version="opset1">
						<data element_type="i32" shape="" offset="560" size="4" />
						<rt_info>
							<attribute name="fused_names" version="0" value="while/add_4/y" />
						</rt_info>
						<output>
							<port id="0" precision="I32" />
						</output>
					</layer>
					<layer id="12" name="while/add_4" type="Add" version="opset1">
						<data auto_broadcast="numpy" />
						<rt_info>
							<attribute name="fused_names" version="0" value="while/add_4" />
						</rt_info>
						<input>
							<port id="0" precision="I32" />
							<port id="1" precision="I32" />
						</input>
						<output>
							<port id="2" precision="I32" />
						</output>
					</layer>
					<layer id="13" name="while/Less" type="Less" version="opset1">
						<data auto_broadcast="numpy" />
						<rt_info>
							<attribute name="fused_names" version="0" value="while/Less" />
						</rt_info>
						<input>
							<port id="0" precision="I32" />
							<port id="1" precision="I32" />
						</input>
						<output>
							<port id="2" precision="BOOL" />
						</output>
					</layer>
					<layer id="21" name="Squeeze_560" type="Squeeze" version="opset1">
						<rt_info>
							<attribute name="fused_names" version="0" value="Squeeze_560" />
						</rt_info>
						<input>
							<port id="0" precision="I32" />
						</input>
						<output>
							<port id="1" precision="I32" />
						</output>
					</layer>
					<layer id="22" name="Constant_561" type="Const" version="opset1">
						<data element_type="i32" shape="1" offset="4" size="4" />
						<rt_info>
							<attribute name="fused_names" version="0" value="Constant_561" />
						</rt_info>
						<output>
							<port id="0" precision="I32">
								<dim>1</dim>
							</port>
						</output>
					</layer>
					<layer id="23" name="Gather_562" type="Gather" version="opset8">
						<data batch_dims="0" />
						<rt_info>
							<attribute name="fused_names" version="0" value="Gather_562, while/TensorArrayV2Read/TensorListGetItem" />
						</rt_info>
						<input>
							<port id="0" precision="FP32">
								<dim>-1</dim>
								<dim>-1</dim>
								<dim>50</dim>
							</port>
							<port id="1" precision="I32" />
							<port id="2" precision="I32">
								<dim>1</dim>
							</port>
						</input>
						<output>
							<port id="3" precision="FP32">
								<dim>-1</dim>
								<dim>50</dim>
							</port>
						</output>
					</layer>
					<layer id="24" name="while/MatMul" type="MatMul" version="opset1">
						<data transpose_a="false" transpose_b="false" />
						<rt_info>
							<attribute name="fused_names" version="0" value="while/MatMul" />
						</rt_info>
						<input>
							<port id="0" precision="FP32">
								<dim>-1</dim>
								<dim>50</dim>
							</port>
							<port id="1" precision="FP32">
								<dim>50</dim>
								<dim>150</dim>
							</port>
						</input>
						<output>
							<port id="2" precision="FP32">
								<dim>-1</dim>
								<dim>150</dim>
							</port>
						</output>
					</layer>
					<layer id="25" name="while/BiasAdd" type="Add" version="opset1">
						<data auto_broadcast="numpy" />
						<rt_info>
							<attribute name="fused_names" version="0" value="while/BiasAdd" />
						</rt_info>
						<input>
							<port id="0" precision="FP32">
								<dim>-1</dim>
								<dim>150</dim>
							</port>
							<port id="1" precision="FP32">
								<dim>150</dim>
							</port>
						</input>
						<output>
							<port id="2" precision="FP32">
								<dim>-1</dim>
								<dim>150</dim>
							</port>
						</output>
					</layer>
					<layer id="26" name="while/split/split_dim" type="Const" version="opset1">
						<data element_type="i32" shape="" offset="560" size="4" />
						<rt_info>
							<attribute name="fused_names" version="0" value="while/split/split_dim" />
						</rt_info>
						<output>
							<port id="0" precision="I32" />
						</output>
					</layer>
					<layer id="27" name="while/split" type="Split" version="opset1">
						<data num_splits="3" />
						<rt_info>
							<attribute name="fused_names" version="0" value="while/split" />
						</rt_info>
						<input>
							<port id="0" precision="FP32">
								<dim>-1</dim>
								<dim>150</dim>
							</port>
							<port id="1" precision="I32" />
						</input>
						<output>
							<port id="2" precision="FP32">
								<dim>-1</dim>
								<dim>50</dim>
							</port>
							<port id="3" precision="FP32">
								<dim>-1</dim>
								<dim>50</dim>
							</port>
							<port id="4" precision="FP32">
								<dim>-1</dim>
								<dim>50</dim>
							</port>
						</output>
					</layer>
					<layer id="28" name="while/MatMul_1" type="MatMul" version="opset1">
						<data transpose_a="false" transpose_b="false" />
						<rt_info>
							<attribute name="fused_names" version="0" value="while/MatMul_1" />
						</rt_info>
						<input>
							<port id="0" precision="FP32">
								<dim>-1</dim>
								<dim>50</dim>
							</port>
							<port id="1" precision="FP32">
								<dim>50</dim>
								<dim>150</dim>
							</port>
						</input>
						<output>
							<port id="2" precision="FP32">
								<dim>-1</dim>
								<dim>150</dim>
							</port>
						</output>
					</layer>
					<layer id="29" name="while/BiasAdd_1" type="Add" version="opset1">
						<data auto_broadcast="numpy" />
						<rt_info>
							<attribute name="fused_names" version="0" value="while/BiasAdd_1" />
						</rt_info>
						<input>
							<port id="0" precision="FP32">
								<dim>-1</dim>
								<dim>150</dim>
							</port>
							<port id="1" precision="FP32">
								<dim>150</dim>
							</port>
						</input>
						<output>
							<port id="2" precision="FP32">
								<dim>-1</dim>
								<dim>150</dim>
							</port>
						</output>
					</layer>
					<layer id="30" name="while/split_1/split_dim" type="Const" version="opset1">
						<data element_type="i32" shape="" offset="560" size="4" />
						<rt_info>
							<attribute name="fused_names" version="0" value="while/split_1/split_dim" />
						</rt_info>
						<output>
							<port id="0" precision="I32" />
						</output>
					</layer>
					<layer id="31" name="while/split_1" type="Split" version="opset1">
						<data num_splits="3" />
						<rt_info>
							<attribute name="fused_names" version="0" value="while/split_1" />
						</rt_info>
						<input>
							<port id="0" precision="FP32">
								<dim>-1</dim>
								<dim>150</dim>
							</port>
							<port id="1" precision="I32" />
						</input>
						<output>
							<port id="2" precision="FP32">
								<dim>-1</dim>
								<dim>50</dim>
							</port>
							<port id="3" precision="FP32">
								<dim>-1</dim>
								<dim>50</dim>
							</port>
							<port id="4" precision="FP32">
								<dim>-1</dim>
								<dim>50</dim>
							</port>
						</output>
					</layer>
					<layer id="32" name="while/add" type="Add" version="opset1">
						<data auto_broadcast="numpy" />
						<rt_info>
							<attribute name="fused_names" version="0" value="while/add" />
						</rt_info>
						<input>
							<port id="0" precision="FP32">
								<dim>-1</dim>
								<dim>50</dim>
							</port>
							<port id="1" precision="FP32">
								<dim>-1</dim>
								<dim>50</dim>
							</port>
						</input>
						<output>
							<port id="2" precision="FP32">
								<dim>-1</dim>
								<dim>50</dim>
							</port>
						</output>
					</layer>
					<layer id="33" name="while/Sigmoid" type="Sigmoid" version="opset1">
						<rt_info>
							<attribute name="fused_names" version="0" value="while/Sigmoid" />
						</rt_info>
						<input>
							<port id="0" precision="FP32">
								<dim>-1</dim>
								<dim>50</dim>
							</port>
						</input>
						<output>
							<port id="1" precision="FP32">
								<dim>-1</dim>
								<dim>50</dim>
							</port>
						</output>
					</layer>
					<layer id="34" name="while/mul_1" type="Multiply" version="opset1">
						<data auto_broadcast="numpy" />
						<rt_info>
							<attribute name="fused_names" version="0" value="while/mul_1" />
						</rt_info>
						<input>
							<port id="0" precision="FP32">
								<dim>-1</dim>
								<dim>50</dim>
							</port>
							<port id="1" precision="FP32">
								<dim>-1</dim>
								<dim>50</dim>
							</port>
						</input>
						<output>
							<port id="2" precision="FP32">
								<dim>-1</dim>
								<dim>50</dim>
							</port>
						</output>
					</layer>
					<layer id="35" name="Constant_8405_compressed" type="Const" version="opset1">
						<data element_type="f16" shape="1, 1" offset="35379" size="2" />
						<rt_info>
							<attribute name="fused_names" version="0" value="while/sub/x" />
						</rt_info>
						<output>
							<port id="0" precision="FP16">
								<dim>1</dim>
								<dim>1</dim>
							</port>
						</output>
					</layer>
					<layer id="36" name="Constant_8405" type="Convert" version="opset1">
						<data destination_type="f32" />
						<rt_info>
							<attribute name="decompression" version="0" />
							<attribute name="fused_names" version="0" value="while/sub/x" />
						</rt_info>
						<input>
							<port id="0" precision="FP16">
								<dim>1</dim>
								<dim>1</dim>
							</port>
						</input>
						<output>
							<port id="1" precision="FP32">
								<dim>1</dim>
								<dim>1</dim>
							</port>
						</output>
					</layer>
					<layer id="37" name="while/sub" type="Subtract" version="opset1">
						<data auto_broadcast="numpy" />
						<rt_info>
							<attribute name="fused_names" version="0" value="while/sub" />
						</rt_info>
						<input>
							<port id="0" precision="FP32">
								<dim>1</dim>
								<dim>1</dim>
							</port>
							<port id="1" precision="FP32">
								<dim>-1</dim>
								<dim>50</dim>
							</port>
						</input>
						<output>
							<port id="2" precision="FP32">
								<dim>-1</dim>
								<dim>50</dim>
							</port>
						</output>
					</layer>
					<layer id="38" name="while/add_1" type="Add" version="opset1">
						<data auto_broadcast="numpy" />
						<rt_info>
							<attribute name="fused_names" version="0" value="while/add_1" />
						</rt_info>
						<input>
							<port id="0" precision="FP32">
								<dim>-1</dim>
								<dim>50</dim>
							</port>
							<port id="1" precision="FP32">
								<dim>-1</dim>
								<dim>50</dim>
							</port>
						</input>
						<output>
							<port id="2" precision="FP32">
								<dim>-1</dim>
								<dim>50</dim>
							</port>
						</output>
					</layer>
					<layer id="39" name="while/Sigmoid_1" type="Sigmoid" version="opset1">
						<rt_info>
							<attribute name="fused_names" version="0" value="while/Sigmoid_1" />
						</rt_info>
						<input>
							<port id="0" precision="FP32">
								<dim>-1</dim>
								<dim>50</dim>
							</port>
						</input>
						<output>
							<port id="1" precision="FP32">
								<dim>-1</dim>
								<dim>50</dim>
							</port>
						</output>
					</layer>
					<layer id="40" name="while/mul" type="Multiply" version="opset1">
						<data auto_broadcast="numpy" />
						<rt_info>
							<attribute name="fused_names" version="0" value="while/mul" />
						</rt_info>
						<input>
							<port id="0" precision="FP32">
								<dim>-1</dim>
								<dim>50</dim>
							</port>
							<port id="1" precision="FP32">
								<dim>-1</dim>
								<dim>50</dim>
							</port>
						</input>
						<output>
							<port id="2" precision="FP32">
								<dim>-1</dim>
								<dim>50</dim>
							</port>
						</output>
					</layer>
					<layer id="41" name="while/add_2" type="Add" version="opset1">
						<data auto_broadcast="numpy" />
						<rt_info>
							<attribute name="fused_names" version="0" value="while/add_2" />
						</rt_info>
						<input>
							<port id="0" precision="FP32">
								<dim>-1</dim>
								<dim>50</dim>
							</port>
							<port id="1" precision="FP32">
								<dim>-1</dim>
								<dim>50</dim>
							</port>
						</input>
						<output>
							<port id="2" precision="FP32">
								<dim>-1</dim>
								<dim>50</dim>
							</port>
						</output>
					</layer>
					<layer id="42" name="while/Tanh" type="Tanh" version="opset1">
						<rt_info>
							<attribute name="fused_names" version="0" value="while/Tanh" />
						</rt_info>
						<input>
							<port id="0" precision="FP32">
								<dim>-1</dim>
								<dim>50</dim>
							</port>
						</input>
						<output>
							<port id="1" precision="FP32">
								<dim>-1</dim>
								<dim>50</dim>
							</port>
						</output>
					</layer>
					<layer id="43" name="while/mul_2" type="Multiply" version="opset1">
						<data auto_broadcast="numpy" />
						<rt_info>
							<attribute name="fused_names" version="0" value="while/mul_2" />
						</rt_info>
						<input>
							<port id="0" precision="FP32">
								<dim>-1</dim>
								<dim>50</dim>
							</port>
							<port id="1" precision="FP32">
								<dim>-1</dim>
								<dim>50</dim>
							</port>
						</input>
						<output>
							<port id="2" precision="FP32">
								<dim>-1</dim>
								<dim>50</dim>
							</port>
						</output>
					</layer>
					<layer id="44" name="while/add_3" type="Add" version="opset1">
						<data auto_broadcast="numpy" />
						<rt_info>
							<attribute name="fused_names" version="0" value="while/add_3" />
						</rt_info>
						<input>
							<port id="0" precision="FP32">
								<dim>-1</dim>
								<dim>50</dim>
							</port>
							<port id="1" precision="FP32">
								<dim>-1</dim>
								<dim>50</dim>
							</port>
						</input>
						<output>
							<port id="2" precision="FP32">
								<dim>-1</dim>
								<dim>50</dim>
							</port>
						</output>
					</layer>
					<layer id="46" name="Constant_586" type="Const" version="opset1">
						<data element_type="i32" shape="1" offset="0" size="4" />
						<rt_info>
							<attribute name="fused_names" version="0" value="Constant_586" />
							<attribute name="precise" version="0" />
						</rt_info>
						<output>
							<port id="0" precision="I32">
								<dim>1</dim>
							</port>
						</output>
					</layer>
					<layer id="47" name="Constant_5944" type="Const" version="opset1">
						<data element_type="i64" shape="1" offset="35381" size="8" />
						<rt_info>
							<attribute name="fused_names" version="0" value="Constant_5944" />
							<attribute name="precise" version="0" />
						</rt_info>
						<output>
							<port id="0" precision="I64">
								<dim>1</dim>
							</port>
						</output>
					</layer>
					<layer id="48" name="Reshape_584" type="Reshape" version="opset1">
						<data special_zero="false" />
						<rt_info>
							<attribute name="fused_names" version="0" value="Reshape_584" />
						</rt_info>
						<input>
							<port id="0" precision="FP32">
								<dim>-1</dim>
								<dim>50</dim>
							</port>
							<port id="1" precision="I64">
								<dim>1</dim>
							</port>
						</input>
						<output>
							<port id="2" precision="FP32">
								<dim>-1</dim>
							</port>
						</output>
					</layer>
					<layer id="49" name="ShapeOf_585" type="ShapeOf" version="opset3">
						<data output_type="i32" />
						<rt_info>
							<attribute name="fused_names" version="0" value="ShapeOf_585" />
						</rt_info>
						<input>
							<port id="0" precision="FP32">
								<dim>-1</dim>
							</port>
						</input>
						<output>
							<port id="1" precision="I32">
								<dim>1</dim>
							</port>
						</output>
					</layer>
					<layer id="50" name="Concat_587" type="Concat" version="opset1">
						<data axis="0" />
						<rt_info>
							<attribute name="fused_names" version="0" value="Concat_587, Constant_586, ShapeOf_585" />
						</rt_info>
						<input>
							<port id="0" precision="I32">
								<dim>1</dim>
							</port>
							<port id="1" precision="I32">
								<dim>1</dim>
							</port>
						</input>
						<output>
							<port id="2" precision="I32">
								<dim>2</dim>
							</port>
						</output>
					</layer>
					<layer id="51" name="Reshape_588" type="Reshape" version="opset1">
						<data special_zero="false" />
						<rt_info>
							<attribute name="fused_names" version="0" value="Reshape_588" />
						</rt_info>
						<input>
							<port id="0" precision="FP32">
								<dim>0</dim>
								<dim>0</dim>
							</port>
							<port id="1" precision="I32">
								<dim>2</dim>
							</port>
						</input>
						<output>
							<port id="2" precision="FP32">
								<dim>-1</dim>
								<dim>-1</dim>
							</port>
						</output>
					</layer>
					<layer id="52" name="ConvertLike_591" type="ConvertLike" version="opset1">
						<rt_info>
							<attribute name="fused_names" version="0" value="ConvertLike_591" />
						</rt_info>
						<input>
							<port id="0" precision="FP32">
								<dim>-1</dim>
								<dim>-1</dim>
							</port>
							<port id="1" precision="FP32">
								<dim>-1</dim>
							</port>
						</input>
						<output>
							<port id="2" precision="FP32">
								<dim>-1</dim>
								<dim>-1</dim>
							</port>
						</output>
					</layer>
					<layer id="53" name="Constant_601_compressed" type="Const" version="opset1">
						<data element_type="f16" shape="" offset="565" size="2" />
						<rt_info>
							<attribute name="fused_names" version="0" value="Constant_601" />
						</rt_info>
						<output>
							<port id="0" precision="FP16" />
						</output>
					</layer>
					<layer id="54" name="Constant_601" type="Convert" version="opset1">
						<data destination_type="f32" />
						<rt_info>
							<attribute name="decompression" version="0" />
							<attribute name="fused_names" version="0" value="Constant_601" />
						</rt_info>
						<input>
							<port id="0" precision="FP16" />
						</input>
						<output>
							<port id="1" precision="FP32" />
						</output>
					</layer>
					<layer id="55" name="ShapeOf_592" type="ShapeOf" version="opset3">
						<data output_type="i32" />
						<rt_info>
							<attribute name="fused_names" version="0" value="ShapeOf_592" />
						</rt_info>
						<input>
							<port id="0" precision="FP32">
								<dim>-1</dim>
								<dim>-1</dim>
							</port>
						</input>
						<output>
							<port id="1" precision="I32">
								<dim>2</dim>
							</port>
						</output>
					</layer>
					<layer id="56" name="Constant_593" type="Const" version="opset1">
						<data element_type="i32" shape="1" offset="4" size="4" />
						<rt_info>
							<attribute name="fused_names" version="0" value="Constant_593, Constant_594, Constant_596, Slice_595" />
							<attribute name="precise" version="0" />
						</rt_info>
						<output>
							<port id="0" precision="I32">
								<dim>1</dim>
							</port>
						</output>
					</layer>
					<layer id="57" name="Constant_594" type="Const" version="opset1">
						<data element_type="i32" shape="1" offset="560" size="4" />
						<rt_info>
							<attribute name="fused_names" version="0" value="Constant_593, Constant_594, Constant_596, Slice_595" />
							<attribute name="precise" version="0" />
						</rt_info>
						<output>
							<port id="0" precision="I32">
								<dim>1</dim>
							</port>
						</output>
					</layer>
					<layer id="58" name="Slice_595" type="StridedSlice" version="opset1">
						<data begin_mask="0" end_mask="0" new_axis_mask="" shrink_axis_mask="" ellipsis_mask="" />
						<rt_info>
							<attribute name="fused_names" version="0" value="Constant_593, Constant_594, Constant_596, Slice_595" />
						</rt_info>
						<input>
							<port id="0" precision="I32">
								<dim>2</dim>
							</port>
							<port id="1" precision="I32">
								<dim>1</dim>
							</port>
							<port id="2" precision="I32">
								<dim>1</dim>
							</port>
							<port id="3" precision="I32">
								<dim>1</dim>
							</port>
						</input>
						<output>
							<port id="4" precision="I32">
								<dim>1</dim>
							</port>
						</output>
					</layer>
					<layer id="59" name="Add_598" type="Const" version="opset1">
						<data element_type="i32" shape="1" offset="560" size="4" />
						<rt_info>
							<attribute name="fused_names" version="0" value="Add_598" />
							<attribute name="precise" version="0" />
						</rt_info>
						<output>
							<port id="0" precision="I32">
								<dim>1</dim>
							</port>
						</output>
					</layer>
					<layer id="60" name="Maximum_599" type="Maximum" version="opset1">
						<data auto_broadcast="numpy" />
						<rt_info>
							<attribute name="fused_names" version="0" value="Add_598, Maximum_599" />
						</rt_info>
						<input>
							<port id="0" precision="I32">
								<dim>1</dim>
							</port>
							<port id="1" precision="I32">
								<dim>1</dim>
							</port>
						</input>
						<output>
							<port id="2" precision="I32">
								<dim>1</dim>
							</port>
						</output>
					</layer>
					<layer id="61" name="Subtract_600" type="Subtract" version="opset1">
						<data auto_broadcast="numpy" />
						<rt_info>
							<attribute name="fused_names" version="0" value="Subtract_600" />
						</rt_info>
						<input>
							<port id="0" precision="I32">
								<dim>1</dim>
							</port>
							<port id="1" precision="I32">
								<dim>1</dim>
							</port>
						</input>
						<output>
							<port id="2" precision="I32">
								<dim>1</dim>
							</port>
						</output>
					</layer>
					<layer id="62" name="Concat_602" type="Concat" version="opset1">
						<data axis="0" />
						<rt_info>
							<attribute name="fused_names" version="0" value="Concat_602" />
						</rt_info>
						<input>
							<port id="0" precision="I32">
								<dim>1</dim>
							</port>
							<port id="1" precision="I32">
								<dim>1</dim>
							</port>
						</input>
						<output>
							<port id="2" precision="I32">
								<dim>2</dim>
							</port>
						</output>
					</layer>
					<layer id="63" name="Broadcast_603" type="Broadcast" version="opset3">
						<data mode="numpy" />
						<rt_info>
							<attribute name="fused_names" version="0" value="Broadcast_603" />
						</rt_info>
						<input>
							<port id="0" precision="FP32" />
							<port id="1" precision="I32">
								<dim>2</dim>
							</port>
						</input>
						<output>
							<port id="2" precision="FP32">
								<dim>-1</dim>
								<dim>-1</dim>
							</port>
						</output>
					</layer>
					<layer id="64" name="Concat_734" type="Concat" version="opset1">
						<data axis="0" />
						<rt_info>
							<attribute name="fused_names" version="0" value="Concat_734" />
						</rt_info>
						<input>
							<port id="0" precision="FP32">
								<dim>-1</dim>
								<dim>-1</dim>
							</port>
							<port id="1" precision="FP32">
								<dim>-1</dim>
								<dim>-1</dim>
							</port>
						</input>
						<output>
							<port id="2" precision="FP32">
								<dim>-1</dim>
								<dim>-1</dim>
							</port>
						</output>
					</layer>
					<layer id="65" name="Unsqueeze_735" type="Const" version="opset1">
						<data element_type="i32" shape="1" offset="4" size="4" />
						<rt_info>
							<attribute name="fused_names" version="0" value="Unsqueeze_735" />
						</rt_info>
						<output>
							<port id="0" precision="I32">
								<dim>1</dim>
							</port>
						</output>
					</layer>
					<layer id="66" name="Unsqueeze_736" type="Unsqueeze" version="opset1">
						<rt_info>
							<attribute name="fused_names" version="0" value="Constant_593, Constant_594, Constant_596, Slice_595, Unsqueeze_736" />
						</rt_info>
						<input>
							<port id="0" precision="FP32">
								<dim>-1</dim>
							</port>
							<port id="1" precision="I32">
								<dim>1</dim>
							</port>
						</input>
						<output>
							<port id="2" precision="FP32">
								<dim>1</dim>
								<dim>-1</dim>
							</port>
						</output>
					</layer>
					<layer id="67" name="while/TensorArrayV2Write/TensorListSetItem" type="ScatterUpdate" version="opset3">
						<rt_info>
							<attribute name="fused_names" version="0" value="Constant_593, Constant_594, Constant_596, Slice_595, while/TensorArrayV2Write/TensorListSetItem" />
						</rt_info>
						<input>
							<port id="0" precision="FP32">
								<dim>-1</dim>
								<dim>-1</dim>
							</port>
							<port id="1" precision="I32">
								<dim>1</dim>
							</port>
							<port id="2" precision="FP32">
								<dim>1</dim>
								<dim>-1</dim>
							</port>
							<port id="3" precision="I32">
								<dim>1</dim>
							</port>
						</input>
						<output>
							<port id="4" precision="FP32">
								<dim>-1</dim>
								<dim>-1</dim>
							</port>
						</output>
					</layer>
					<layer id="71" name="while/add_5/y" type="Const" version="opset1">
						<data element_type="i32" shape="" offset="560" size="4" />
						<rt_info>
							<attribute name="fused_names" version="0" value="while/add_5/y" />
						</rt_info>
						<output>
							<port id="0" precision="I32" />
						</output>
					</layer>
					<layer id="72" name="while/add_5" type="Add" version="opset1">
						<data auto_broadcast="numpy" />
						<rt_info>
							<attribute name="fused_names" version="0" value="while/add_5" />
						</rt_info>
						<input>
							<port id="0" precision="I32" />
							<port id="1" precision="I32" />
						</input>
						<output>
							<port id="2" precision="I32" />
						</output>
					</layer>
					<layer id="73" name="while_identity" type="Result" version="opset1">
						<rt_info>
							<attribute name="fused_names" version="0" value="while_identity" />
						</rt_info>
						<input>
							<port id="0" precision="I32" />
						</input>
					</layer>
					<layer id="70" name="while_identity_1" type="Result" version="opset1">
						<rt_info>
							<attribute name="fused_names" version="0" value="while_identity_1" />
						</rt_info>
						<input>
							<port id="0" precision="I32" />
						</input>
					</layer>
					<layer id="69" name="while_identity_2" type="Result" version="opset1">
						<rt_info>
							<attribute name="fused_names" version="0" value="while_identity_2" />
						</rt_info>
						<input>
							<port id="0" precision="I32" />
						</input>
					</layer>
					<layer id="68" name="while_identity_3" type="Result" version="opset1">
						<rt_info>
							<attribute name="fused_names" version="0" value="while_identity_3" />
						</rt_info>
						<input>
							<port id="0" precision="FP32">
								<dim>-1</dim>
								<dim>-1</dim>
							</port>
						</input>
					</layer>
					<layer id="45" name="while_identity_4" type="Result" version="opset1">
						<rt_info>
							<attribute name="fused_names" version="0" value="while_identity_4" />
						</rt_info>
						<input>
							<port id="0" precision="FP32">
								<dim>-1</dim>
								<dim>50</dim>
							</port>
						</input>
					</layer>
					<layer id="20" name="while_strided_slice" type="Result" version="opset1">
						<rt_info>
							<attribute name="fused_names" version="0" value="while_strided_slice" />
						</rt_info>
						<input>
							<port id="0" precision="I32" />
						</input>
					</layer>
					<layer id="19" name="while_tensorarrayv2read_tensorlistgetitem_tensorarrayunstack_tensorlistfromtensor" type="Result" version="opset1">
						<rt_info>
							<attribute name="fused_names" version="0" value="while_tensorarrayv2read_tensorlistgetitem_tensorarrayunstack_tensorlistfromtensor" />
						</rt_info>
						<input>
							<port id="0" precision="FP32">
								<dim>-1</dim>
								<dim>-1</dim>
								<dim>50</dim>
							</port>
						</input>
					</layer>
					<layer id="18" name="while_matmul_kernel" type="Result" version="opset1">
						<rt_info>
							<attribute name="fused_names" version="0" value="while_matmul_kernel" />
						</rt_info>
						<input>
							<port id="0" precision="FP32">
								<dim>50</dim>
								<dim>150</dim>
							</port>
						</input>
					</layer>
					<layer id="17" name="while_biasadd_unstack" type="Result" version="opset1">
						<rt_info>
							<attribute name="fused_names" version="0" value="while_biasadd_unstack" />
						</rt_info>
						<input>
							<port id="0" precision="FP32">
								<dim>150</dim>
							</port>
						</input>
					</layer>
					<layer id="16" name="while_matmul_1_recurrent_kernel" type="Result" version="opset1">
						<rt_info>
							<attribute name="fused_names" version="0" value="while_matmul_1_recurrent_kernel" />
						</rt_info>
						<input>
							<port id="0" precision="FP32">
								<dim>50</dim>
								<dim>150</dim>
							</port>
						</input>
					</layer>
					<layer id="15" name="while_biasadd_1_unstack" type="Result" version="opset1">
						<rt_info>
							<attribute name="fused_names" version="0" value="while_biasadd_1_unstack" />
						</rt_info>
						<input>
							<port id="0" precision="FP32">
								<dim>150</dim>
							</port>
						</input>
					</layer>
					<layer id="14" name="while_identity0" type="Result" version="opset1">
						<rt_info>
							<attribute name="fused_names" version="0" value="while_identity" />
						</rt_info>
						<input>
							<port id="0" precision="BOOL" />
						</input>
					</layer>
				</layers>
				<edges>
					<edge from-layer="0" from-port="0" to-layer="29" to-port="1" />
					<edge from-layer="0" from-port="0" to-layer="15" to-port="0" />
					<edge from-layer="1" from-port="0" to-layer="28" to-port="1" />
					<edge from-layer="1" from-port="0" to-layer="16" to-port="0" />
					<edge from-layer="2" from-port="0" to-layer="17" to-port="0" />
					<edge from-layer="2" from-port="0" to-layer="25" to-port="1" />
					<edge from-layer="3" from-port="0" to-layer="18" to-port="0" />
					<edge from-layer="3" from-port="0" to-layer="24" to-port="1" />
					<edge from-layer="4" from-port="0" to-layer="19" to-port="0" />
					<edge from-layer="4" from-port="0" to-layer="23" to-port="0" />
					<edge from-layer="5" from-port="0" to-layer="13" to-port="1" />
					<edge from-layer="5" from-port="0" to-layer="20" to-port="0" />
					<edge from-layer="6" from-port="0" to-layer="34" to-port="1" />
					<edge from-layer="6" from-port="0" to-layer="28" to-port="0" />
					<edge from-layer="7" from-port="0" to-layer="51" to-port="0" />
					<edge from-layer="8" from-port="0" to-layer="12" to-port="0" />
					<edge from-layer="8" from-port="0" to-layer="21" to-port="0" />
					<edge from-layer="9" from-port="0" to-layer="70" to-port="0" />
					<edge from-layer="10" from-port="0" to-layer="72" to-port="0" />
					<edge from-layer="11" from-port="0" to-layer="12" to-port="1" />
					<edge from-layer="12" from-port="2" to-layer="69" to-port="0" />
					<edge from-layer="12" from-port="2" to-layer="13" to-port="0" />
					<edge from-layer="13" from-port="2" to-layer="14" to-port="0" />
					<edge from-layer="21" from-port="1" to-layer="23" to-port="1" />
					<edge from-layer="22" from-port="0" to-layer="23" to-port="2" />
					<edge from-layer="23" from-port="3" to-layer="24" to-port="0" />
					<edge from-layer="24" from-port="2" to-layer="25" to-port="0" />
					<edge from-layer="25" from-port="2" to-layer="27" to-port="0" />
					<edge from-layer="26" from-port="0" to-layer="27" to-port="1" />
					<edge from-layer="27" from-port="2" to-layer="32" to-port="0" />
					<edge from-layer="27" from-port="3" to-layer="38" to-port="0" />
					<edge from-layer="27" from-port="4" to-layer="41" to-port="0" />
					<edge from-layer="28" from-port="2" to-layer="29" to-port="0" />
					<edge from-layer="29" from-port="2" to-layer="31" to-port="0" />
					<edge from-layer="30" from-port="0" to-layer="31" to-port="1" />
					<edge from-layer="31" from-port="2" to-layer="32" to-port="1" />
					<edge from-layer="31" from-port="3" to-layer="38" to-port="1" />
					<edge from-layer="31" from-port="4" to-layer="40" to-port="1" />
					<edge from-layer="32" from-port="2" to-layer="33" to-port="0" />
					<edge from-layer="33" from-port="1" to-layer="37" to-port="1" />
					<edge from-layer="33" from-port="1" to-layer="34" to-port="0" />
					<edge from-layer="34" from-port="2" to-layer="44" to-port="0" />
					<edge from-layer="35" from-port="0" to-layer="36" to-port="0" />
					<edge from-layer="36" from-port="1" to-layer="37" to-port="0" />
					<edge from-layer="37" from-port="2" to-layer="43" to-port="0" />
					<edge from-layer="38" from-port="2" to-layer="39" to-port="0" />
					<edge from-layer="39" from-port="1" to-layer="40" to-port="0" />
					<edge from-layer="40" from-port="2" to-layer="41" to-port="1" />
					<edge from-layer="41" from-port="2" to-layer="42" to-port="0" />
					<edge from-layer="42" from-port="1" to-layer="43" to-port="1" />
					<edge from-layer="43" from-port="2" to-layer="44" to-port="1" />
					<edge from-layer="44" from-port="2" to-layer="48" to-port="0" />
					<edge from-layer="44" from-port="2" to-layer="45" to-port="0" />
					<edge from-layer="46" from-port="0" to-layer="50" to-port="0" />
					<edge from-layer="47" from-port="0" to-layer="48" to-port="1" />
					<edge from-layer="48" from-port="2" to-layer="49" to-port="0" />
					<edge from-layer="48" from-port="2" to-layer="52" to-port="1" />
					<edge from-layer="48" from-port="2" to-layer="66" to-port="0" />
					<edge from-layer="49" from-port="1" to-layer="62" to-port="1" />
					<edge from-layer="49" from-port="1" to-layer="50" to-port="1" />
					<edge from-layer="50" from-port="2" to-layer="51" to-port="1" />
					<edge from-layer="51" from-port="2" to-layer="52" to-port="0" />
					<edge from-layer="52" from-port="2" to-layer="55" to-port="0" />
					<edge from-layer="52" from-port="2" to-layer="64" to-port="0" />
					<edge from-layer="53" from-port="0" to-layer="54" to-port="0" />
					<edge from-layer="54" from-port="1" to-layer="63" to-port="0" />
					<edge from-layer="55" from-port="1" to-layer="58" to-port="0" />
					<edge from-layer="56" from-port="0" to-layer="66" to-port="1" />
					<edge from-layer="56" from-port="0" to-layer="67" to-port="3" />
					<edge from-layer="56" from-port="0" to-layer="58" to-port="1" />
					<edge from-layer="57" from-port="0" to-layer="58" to-port="3" />
					<edge from-layer="57" from-port="0" to-layer="58" to-port="2" />
					<edge from-layer="58" from-port="4" to-layer="61" to-port="1" />
					<edge from-layer="58" from-port="4" to-layer="60" to-port="0" />
					<edge from-layer="59" from-port="0" to-layer="60" to-port="1" />
					<edge from-layer="60" from-port="2" to-layer="61" to-port="0" />
					<edge from-layer="61" from-port="2" to-layer="62" to-port="0" />
					<edge from-layer="62" from-port="2" to-layer="63" to-port="1" />
					<edge from-layer="63" from-port="2" to-layer="64" to-port="1" />
					<edge from-layer="64" from-port="2" to-layer="67" to-port="0" />
					<edge from-layer="65" from-port="0" to-layer="67" to-port="1" />
					<edge from-layer="66" from-port="2" to-layer="67" to-port="2" />
					<edge from-layer="67" from-port="4" to-layer="68" to-port="0" />
					<edge from-layer="71" from-port="0" to-layer="72" to-port="1" />
					<edge from-layer="72" from-port="2" to-layer="73" to-port="0" />
				</edges>
				<rt_info />
			</body>
		</layer>
		<layer id="101" name="ShapeOf_2471" type="ShapeOf" version="opset3">
			<data output_type="i32" />
			<input>
				<port id="0" precision="FP32">
					<dim>-1</dim>
					<dim>-1</dim>
				</port>
			</input>
			<output>
				<port id="1" precision="I32">
					<dim>2</dim>
				</port>
			</output>
		</layer>
		<layer id="102" name="Constant_2472" type="Const" version="opset1">
			<data element_type="i32" shape="1" offset="4" size="4" />
			<rt_info>
				<attribute name="precise" version="0" />
			</rt_info>
			<output>
				<port id="0" precision="I32">
					<dim>1</dim>
				</port>
			</output>
		</layer>
		<layer id="103" name="Constant_2473" type="Const" version="opset1">
			<data element_type="i32" shape="1" offset="560" size="4" />
			<rt_info>
				<attribute name="precise" version="0" />
			</rt_info>
			<output>
				<port id="0" precision="I32">
					<dim>1</dim>
				</port>
			</output>
		</layer>
		<layer id="104" name="Slice_2474" type="StridedSlice" version="opset1">
			<data begin_mask="0" end_mask="0" new_axis_mask="" shrink_axis_mask="" ellipsis_mask="" />
			<input>
				<port id="0" precision="I32">
					<dim>2</dim>
				</port>
				<port id="1" precision="I32">
					<dim>1</dim>
				</port>
				<port id="2" precision="I32">
					<dim>1</dim>
				</port>
				<port id="3" precision="I32">
					<dim>1</dim>
				</port>
			</input>
			<output>
				<port id="4" precision="I32">
					<dim>1</dim>
				</port>
			</output>
		</layer>
		<layer id="105" name="TensorArrayV2Stack/TensorListStack/element_shape0" type="Const" version="opset1">
			<data element_type="i32" shape="2" offset="35389" size="8" />
			<rt_info>
				<attribute name="precise" version="0" />
			</rt_info>
			<output>
				<port id="0" precision="I32">
					<dim>2</dim>
				</port>
			</output>
		</layer>
		<layer id="106" name="Concat_2476" type="Concat" version="opset1">
			<data axis="0" />
			<input>
				<port id="0" precision="I32">
					<dim>1</dim>
				</port>
				<port id="1" precision="I32">
					<dim>2</dim>
				</port>
			</input>
			<output>
				<port id="2" precision="I32">
					<dim>3</dim>
				</port>
			</output>
		</layer>
		<layer id="107" name="TensorArrayV2Stack/TensorListStack0" type="Reshape" version="opset1">
			<data special_zero="false" />
			<input>
				<port id="0" precision="FP32">
					<dim>-1</dim>
					<dim>-1</dim>
				</port>
				<port id="1" precision="I32">
					<dim>3</dim>
				</port>
			</input>
			<output>
				<port id="2" precision="FP32">
					<dim>-1</dim>
					<dim>-1</dim>
					<dim>50</dim>
				</port>
			</output>
		</layer>
		<layer id="108" name="strided_slice_2/stack" type="Const" version="opset1">
			<data element_type="i32" shape="1" offset="0" size="4" />
			<rt_info>
				<attribute name="precise" version="0" />
			</rt_info>
			<output>
				<port id="0" precision="I32">
					<dim>1</dim>
				</port>
			</output>
		</layer>
		<layer id="109" name="strided_slice_2/stack_1" type="Const" version="opset1">
			<data element_type="i32" shape="1" offset="4" size="4" />
			<rt_info>
				<attribute name="precise" version="0" />
			</rt_info>
			<output>
				<port id="0" precision="I32">
					<dim>1</dim>
				</port>
			</output>
		</layer>
		<layer id="110" name="strided_slice_2/stack_2" type="Const" version="opset1">
			<data element_type="i32" shape="1" offset="560" size="4" />
			<rt_info>
				<attribute name="precise" version="0" />
			</rt_info>
			<output>
				<port id="0" precision="I32">
					<dim>1</dim>
				</port>
			</output>
		</layer>
		<layer id="111" name="strided_slice_2" type="StridedSlice" version="opset1">
			<data begin_mask="0" end_mask="0" new_axis_mask="0" shrink_axis_mask="1" ellipsis_mask="0" />
			<input>
				<port id="0" precision="FP32">
					<dim>-1</dim>
					<dim>-1</dim>
					<dim>50</dim>
				</port>
				<port id="1" precision="I32">
					<dim>1</dim>
				</port>
				<port id="2" precision="I32">
					<dim>1</dim>
				</port>
				<port id="3" precision="I32">
					<dim>1</dim>
				</port>
			</input>
			<output>
				<port id="4" precision="FP32" names="sequential/dropout_1/Identity:0,sequential/gru_1/PartitionedCall:0">
					<dim>-1</dim>
					<dim>50</dim>
				</port>
			</output>
		</layer>
		<layer id="112" name="sequential/flatten/Const" type="Const" version="opset1">
			<data element_type="i64" shape="2" offset="65997" size="16" />
			<rt_info>
				<attribute name="precise" version="0" />
			</rt_info>
			<output>
				<port id="0" precision="I64" names="sequential/flatten/Const:0">
					<dim>2</dim>
				</port>
			</output>
		</layer>
		<layer id="113" name="sequential/flatten/Reshape" type="Reshape" version="opset1">
			<data special_zero="false" />
			<input>
				<port id="0" precision="FP32">
					<dim>-1</dim>
					<dim>50</dim>
				</port>
				<port id="1" precision="I64">
					<dim>2</dim>
				</port>
			</input>
			<output>
				<port id="2" precision="FP32" names="sequential/flatten/Reshape:0">
					<dim>-1</dim>
					<dim>50</dim>
				</port>
			</output>
		</layer>
		<layer id="114" name="Transpose_8253_compressed" type="Const" version="opset1">
			<data element_type="f16" shape="15, 50" offset="66013" size="1500" />
			<output>
				<port id="0" precision="FP16">
					<dim>15</dim>
					<dim>50</dim>
				</port>
			</output>
		</layer>
		<layer id="115" name="Transpose_8253" type="Convert" version="opset1">
			<data destination_type="f32" />
			<rt_info>
				<attribute name="decompression" version="0" />
			</rt_info>
			<input>
				<port id="0" precision="FP16">
					<dim>15</dim>
					<dim>50</dim>
				</port>
			</input>
			<output>
				<port id="1" precision="FP32">
					<dim>15</dim>
					<dim>50</dim>
				</port>
			</output>
		</layer>
		<layer id="116" name="sequential/dense/MatMul" type="MatMul" version="opset1">
			<data transpose_a="false" transpose_b="true" />
			<input>
				<port id="0" precision="FP32">
					<dim>-1</dim>
					<dim>50</dim>
				</port>
				<port id="1" precision="FP32">
					<dim>15</dim>
					<dim>50</dim>
				</port>
			</input>
			<output>
				<port id="2" precision="FP32" names="sequential/dense/MatMul:0">
					<dim>-1</dim>
					<dim>15</dim>
				</port>
			</output>
		</layer>
		<layer id="117" name="Constant_8406_compressed" type="Const" version="opset1">
			<data element_type="f16" shape="1, 15" offset="67513" size="30" />
			<output>
				<port id="0" precision="FP16">
					<dim>1</dim>
					<dim>15</dim>
				</port>
			</output>
		</layer>
		<layer id="118" name="Constant_8406" type="Convert" version="opset1">
			<data destination_type="f32" />
			<rt_info>
				<attribute name="decompression" version="0" />
			</rt_info>
			<input>
				<port id="0" precision="FP16">
					<dim>1</dim>
					<dim>15</dim>
				</port>
			</input>
			<output>
				<port id="1" precision="FP32">
					<dim>1</dim>
					<dim>15</dim>
				</port>
			</output>
		</layer>
		<layer id="119" name="sequential/dense/BiasAdd" type="Add" version="opset1">
			<data auto_broadcast="numpy" />
			<input>
				<port id="0" precision="FP32">
					<dim>-1</dim>
					<dim>15</dim>
				</port>
				<port id="1" precision="FP32">
					<dim>1</dim>
					<dim>15</dim>
				</port>
			</input>
			<output>
				<port id="2" precision="FP32" names="sequential/dense/BiasAdd:0">
					<dim>-1</dim>
					<dim>15</dim>
				</port>
			</output>
		</layer>
		<layer id="120" name="sequential/dense/Softmax" type="SoftMax" version="opset8">
			<data axis="-1" />
			<input>
				<port id="0" precision="FP32">
					<dim>-1</dim>
					<dim>15</dim>
				</port>
			</input>
			<output>
				<port id="1" precision="FP32" names="dense">
					<dim>-1</dim>
					<dim>15</dim>
				</port>
			</output>
		</layer>
		<layer id="121" name="dense" type="Result" version="opset1">
			<input>
				<port id="0" precision="FP32">
					<dim>-1</dim>
					<dim>15</dim>
				</port>
			</input>
		</layer>
	</layers>
	<edges>
		<edge from-layer="0" from-port="0" to-layer="6" to-port="0" />
		<edge from-layer="1" from-port="0" to-layer="100" to-port="0" />
		<edge from-layer="2" from-port="0" to-layer="73" to-port="0" />
		<edge from-layer="2" from-port="0" to-layer="100" to-port="4" />
		<edge from-layer="3" from-port="0" to-layer="55" to-port="0" />
		<edge from-layer="4" from-port="0" to-layer="55" to-port="4" />
		<edge from-layer="4" from-port="0" to-layer="28" to-port="0" />
		<edge from-layer="5" from-port="0" to-layer="6" to-port="1" />
		<edge from-layer="6" from-port="2" to-layer="8" to-port="0" />
		<edge from-layer="7" from-port="0" to-layer="8" to-port="1" />
		<edge from-layer="8" from-port="2" to-layer="11" to-port="0" />
		<edge from-layer="9" from-port="0" to-layer="10" to-port="0" />
		<edge from-layer="10" from-port="1" to-layer="11" to-port="1" />
		<edge from-layer="11" from-port="2" to-layer="13" to-port="0" />
		<edge from-layer="12" from-port="0" to-layer="13" to-port="1" />
		<edge from-layer="13" from-port="2" to-layer="16" to-port="0" />
		<edge from-layer="14" from-port="0" to-layer="15" to-port="0" />
		<edge from-layer="15" from-port="1" to-layer="16" to-port="1" />
		<edge from-layer="16" from-port="2" to-layer="17" to-port="0" />
		<edge from-layer="17" from-port="1" to-layer="19" to-port="0" />
		<edge from-layer="17" from-port="1" to-layer="34" to-port="0" />
		<edge from-layer="18" from-port="0" to-layer="19" to-port="1" />
		<edge from-layer="18" from-port="0" to-layer="36" to-port="1" />
		<edge from-layer="19" from-port="2" to-layer="46" to-port="0" />
		<edge from-layer="19" from-port="2" to-layer="20" to-port="0" />
		<edge from-layer="20" from-port="1" to-layer="23" to-port="0" />
		<edge from-layer="21" from-port="0" to-layer="23" to-port="1" />
		<edge from-layer="21" from-port="0" to-layer="46" to-port="1" />
		<edge from-layer="22" from-port="0" to-layer="23" to-port="2" />
		<edge from-layer="23" from-port="3" to-layer="27" to-port="0" />
		<edge from-layer="24" from-port="0" to-layer="27" to-port="1" />
		<edge from-layer="25" from-port="0" to-layer="27" to-port="2" />
		<edge from-layer="26" from-port="0" to-layer="27" to-port="3" />
		<edge from-layer="27" from-port="4" to-layer="28" to-port="1" />
		<edge from-layer="27" from-port="4" to-layer="55" to-port="7" />
		<edge from-layer="28" from-port="2" to-layer="55" to-port="1" />
		<edge from-layer="29" from-port="0" to-layer="55" to-port="2" />
		<edge from-layer="30" from-port="0" to-layer="55" to-port="3" />
		<edge from-layer="31" from-port="0" to-layer="55" to-port="5" />
		<edge from-layer="32" from-port="0" to-layer="33" to-port="0" />
		<edge from-layer="33" from-port="1" to-layer="45" to-port="0" />
		<edge from-layer="34" from-port="1" to-layer="36" to-port="0" />
		<edge from-layer="35" from-port="0" to-layer="36" to-port="2" />
		<edge from-layer="36" from-port="3" to-layer="40" to-port="0" />
		<edge from-layer="37" from-port="0" to-layer="40" to-port="1" />
		<edge from-layer="38" from-port="0" to-layer="40" to-port="2" />
		<edge from-layer="39" from-port="0" to-layer="40" to-port="3" />
		<edge from-layer="40" from-port="4" to-layer="42" to-port="0" />
		<edge from-layer="41" from-port="0" to-layer="42" to-port="1" />
		<edge from-layer="42" from-port="2" to-layer="44" to-port="0" />
		<edge from-layer="43" from-port="0" to-layer="44" to-port="1" />
		<edge from-layer="44" from-port="2" to-layer="45" to-port="1" />
		<edge from-layer="45" from-port="2" to-layer="55" to-port="6" />
		<edge from-layer="46" from-port="2" to-layer="55" to-port="8" />
		<edge from-layer="47" from-port="0" to-layer="48" to-port="0" />
		<edge from-layer="48" from-port="1" to-layer="55" to-port="9" />
		<edge from-layer="49" from-port="0" to-layer="50" to-port="0" />
		<edge from-layer="50" from-port="1" to-layer="55" to-port="10" />
		<edge from-layer="51" from-port="0" to-layer="52" to-port="0" />
		<edge from-layer="52" from-port="1" to-layer="55" to-port="11" />
		<edge from-layer="53" from-port="0" to-layer="54" to-port="0" />
		<edge from-layer="54" from-port="1" to-layer="55" to-port="12" />
		<edge from-layer="55" from-port="13" to-layer="56" to-port="0" />
		<edge from-layer="55" from-port="13" to-layer="62" to-port="0" />
		<edge from-layer="56" from-port="1" to-layer="59" to-port="0" />
		<edge from-layer="57" from-port="0" to-layer="59" to-port="1" />
		<edge from-layer="58" from-port="0" to-layer="59" to-port="2" />
		<edge from-layer="58" from-port="0" to-layer="59" to-port="3" />
		<edge from-layer="59" from-port="4" to-layer="61" to-port="0" />
		<edge from-layer="60" from-port="0" to-layer="61" to-port="1" />
		<edge from-layer="61" from-port="2" to-layer="62" to-port="1" />
		<edge from-layer="62" from-port="2" to-layer="79" to-port="0" />
		<edge from-layer="62" from-port="2" to-layer="64" to-port="0" />
		<edge from-layer="63" from-port="0" to-layer="64" to-port="1" />
		<edge from-layer="63" from-port="0" to-layer="81" to-port="1" />
		<edge from-layer="64" from-port="2" to-layer="65" to-port="0" />
		<edge from-layer="64" from-port="2" to-layer="91" to-port="0" />
		<edge from-layer="65" from-port="1" to-layer="68" to-port="0" />
		<edge from-layer="66" from-port="0" to-layer="91" to-port="1" />
		<edge from-layer="66" from-port="0" to-layer="68" to-port="1" />
		<edge from-layer="67" from-port="0" to-layer="68" to-port="2" />
		<edge from-layer="68" from-port="3" to-layer="72" to-port="0" />
		<edge from-layer="69" from-port="0" to-layer="72" to-port="1" />
		<edge from-layer="70" from-port="0" to-layer="72" to-port="2" />
		<edge from-layer="71" from-port="0" to-layer="72" to-port="3" />
		<edge from-layer="72" from-port="4" to-layer="100" to-port="7" />
		<edge from-layer="72" from-port="4" to-layer="73" to-port="1" />
		<edge from-layer="73" from-port="2" to-layer="100" to-port="1" />
		<edge from-layer="74" from-port="0" to-layer="100" to-port="2" />
		<edge from-layer="75" from-port="0" to-layer="100" to-port="3" />
		<edge from-layer="76" from-port="0" to-layer="100" to-port="5" />
		<edge from-layer="77" from-port="0" to-layer="78" to-port="0" />
		<edge from-layer="78" from-port="1" to-layer="90" to-port="0" />
		<edge from-layer="79" from-port="1" to-layer="81" to-port="0" />
		<edge from-layer="80" from-port="0" to-layer="81" to-port="2" />
		<edge from-layer="81" from-port="3" to-layer="85" to-port="0" />
		<edge from-layer="82" from-port="0" to-layer="85" to-port="1" />
		<edge from-layer="83" from-port="0" to-layer="85" to-port="2" />
		<edge from-layer="84" from-port="0" to-layer="85" to-port="3" />
		<edge from-layer="85" from-port="4" to-layer="87" to-port="0" />
		<edge from-layer="86" from-port="0" to-layer="87" to-port="1" />
		<edge from-layer="87" from-port="2" to-layer="89" to-port="0" />
		<edge from-layer="88" from-port="0" to-layer="89" to-port="1" />
		<edge from-layer="89" from-port="2" to-layer="90" to-port="1" />
		<edge from-layer="90" from-port="2" to-layer="100" to-port="6" />
		<edge from-layer="91" from-port="2" to-layer="100" to-port="8" />
		<edge from-layer="92" from-port="0" to-layer="93" to-port="0" />
		<edge from-layer="93" from-port="1" to-layer="100" to-port="9" />
		<edge from-layer="94" from-port="0" to-layer="95" to-port="0" />
		<edge from-layer="95" from-port="1" to-layer="100" to-port="10" />
		<edge from-layer="96" from-port="0" to-layer="97" to-port="0" />
		<edge from-layer="97" from-port="1" to-layer="100" to-port="11" />
		<edge from-layer="98" from-port="0" to-layer="99" to-port="0" />
		<edge from-layer="99" from-port="1" to-layer="100" to-port="12" />
		<edge from-layer="100" from-port="13" to-layer="107" to-port="0" />
		<edge from-layer="100" from-port="13" to-layer="101" to-port="0" />
		<edge from-layer="101" from-port="1" to-layer="104" to-port="0" />
		<edge from-layer="102" from-port="0" to-layer="104" to-port="1" />
		<edge from-layer="103" from-port="0" to-layer="104" to-port="2" />
		<edge from-layer="103" from-port="0" to-layer="104" to-port="3" />
		<edge from-layer="104" from-port="4" to-layer="106" to-port="0" />
		<edge from-layer="105" from-port="0" to-layer="106" to-port="1" />
		<edge from-layer="106" from-port="2" to-layer="107" to-port="1" />
		<edge from-layer="107" from-port="2" to-layer="111" to-port="0" />
		<edge from-layer="108" from-port="0" to-layer="111" to-port="1" />
		<edge from-layer="109" from-port="0" to-layer="111" to-port="2" />
		<edge from-layer="110" from-port="0" to-layer="111" to-port="3" />
		<edge from-layer="111" from-port="4" to-layer="113" to-port="0" />
		<edge from-layer="112" from-port="0" to-layer="113" to-port="1" />
		<edge from-layer="113" from-port="2" to-layer="116" to-port="0" />
		<edge from-layer="114" from-port="0" to-layer="115" to-port="0" />
		<edge from-layer="115" from-port="1" to-layer="116" to-port="1" />
		<edge from-layer="116" from-port="2" to-layer="119" to-port="0" />
		<edge from-layer="117" from-port="0" to-layer="118" to-port="0" />
		<edge from-layer="118" from-port="1" to-layer="119" to-port="1" />
		<edge from-layer="119" from-port="2" to-layer="120" to-port="0" />
		<edge from-layer="120" from-port="1" to-layer="121" to-port="0" />
	</edges>
	<rt_info>
		<MO_version value="2024.0.0-14509-34caeefd078-releases/2024/0" />
		<Runtime_version value="2024.0.0-14509-34caeefd078-releases/2024/0" />
		<conversion_parameters>
			<is_python_api_used value="False" />
			<saved_model_dir value="DIR" />
		</conversion_parameters>
		<legacy_frontend value="False" />
	</rt_info>
</net>
